<?xml version="1.0"?>
<net name="onnx_Frontend_IR" version="11">
	<layers>
		<layer id="0" name="spatial_in" type="Parameter" version="opset1">
			<data shape="1,3,224,224" element_type="f32" />
			<output>
				<port id="0" precision="FP32" names="spatial_in">
					<dim>1</dim>
					<dim>3</dim>
					<dim>224</dim>
					<dim>224</dim>
				</port>
			</output>
		</layer>
		<layer id="1" name="freq_in" type="Parameter" version="opset1">
			<data shape="1,2,224,224" element_type="f32" />
			<output>
				<port id="0" precision="FP32" names="freq_in">
					<dim>1</dim>
					<dim>2</dim>
					<dim>224</dim>
					<dim>224</dim>
				</port>
			</output>
		</layer>
		<layer id="2" name="freq_in/fq_output_0/input_low" type="Const" version="opset1">
			<data element_type="f32" shape="" offset="0" size="4" />
			<output>
				<port id="0" precision="FP32" />
			</output>
		</layer>
		<layer id="3" name="freq_in/fq_output_0/input_high" type="Const" version="opset1">
			<data element_type="f32" shape="" offset="4" size="4" />
			<output>
				<port id="0" precision="FP32" />
			</output>
		</layer>
		<layer id="4" name="freq_in/fq_output_0/output_low" type="Const" version="opset1">
			<data element_type="f32" shape="" offset="0" size="4" />
			<output>
				<port id="0" precision="FP32" />
			</output>
		</layer>
		<layer id="5" name="freq_in/fq_output_0/output_high" type="Const" version="opset1">
			<data element_type="f32" shape="" offset="4" size="4" />
			<output>
				<port id="0" precision="FP32" />
			</output>
		</layer>
		<layer id="6" name="freq_in/fq_output_0" type="FakeQuantize" version="opset1">
			<data levels="256" auto_broadcast="numpy" />
			<input>
				<port id="0" precision="FP32">
					<dim>1</dim>
					<dim>2</dim>
					<dim>224</dim>
					<dim>224</dim>
				</port>
				<port id="1" precision="FP32" />
				<port id="2" precision="FP32" />
				<port id="3" precision="FP32" />
				<port id="4" precision="FP32" />
			</input>
			<output>
				<port id="5" precision="FP32">
					<dim>1</dim>
					<dim>2</dim>
					<dim>224</dim>
					<dim>224</dim>
				</port>
			</output>
		</layer>
		<layer id="7" name="Constant_247843" type="Const" version="opset1">
			<data element_type="i8" shape="32, 2, 3, 3" offset="8" size="576" />
			<output>
				<port id="0" precision="I8">
					<dim>32</dim>
					<dim>2</dim>
					<dim>3</dim>
					<dim>3</dim>
				</port>
			</output>
		</layer>
		<layer id="8" name="Convert_247844" type="Convert" version="opset1">
			<data destination_type="f32" />
			<input>
				<port id="0" precision="I8">
					<dim>32</dim>
					<dim>2</dim>
					<dim>3</dim>
					<dim>3</dim>
				</port>
			</input>
			<output>
				<port id="1" precision="FP32">
					<dim>32</dim>
					<dim>2</dim>
					<dim>3</dim>
					<dim>3</dim>
				</port>
			</output>
		</layer>
		<layer id="9" name="Constant_247845" type="Const" version="opset1">
			<data element_type="f32" shape="32, 1, 1, 1" offset="584" size="128" />
			<output>
				<port id="0" precision="FP32">
					<dim>32</dim>
					<dim>1</dim>
					<dim>1</dim>
					<dim>1</dim>
				</port>
			</output>
		</layer>
		<layer id="10" name="/freq_stream/freq_stream.0/Conv/WithoutBiases/fq_weights_1" type="Multiply" version="opset1">
			<data auto_broadcast="numpy" />
			<input>
				<port id="0" precision="FP32">
					<dim>32</dim>
					<dim>2</dim>
					<dim>3</dim>
					<dim>3</dim>
				</port>
				<port id="1" precision="FP32">
					<dim>32</dim>
					<dim>1</dim>
					<dim>1</dim>
					<dim>1</dim>
				</port>
			</input>
			<output>
				<port id="2" precision="FP32">
					<dim>32</dim>
					<dim>2</dim>
					<dim>3</dim>
					<dim>3</dim>
				</port>
			</output>
		</layer>
		<layer id="11" name="/freq_stream/freq_stream.0/Conv/WithoutBiases" type="Convolution" version="opset1">
			<data strides="1, 1" dilations="1, 1" pads_begin="1, 1" pads_end="1, 1" auto_pad="explicit" />
			<input>
				<port id="0" precision="FP32">
					<dim>1</dim>
					<dim>2</dim>
					<dim>224</dim>
					<dim>224</dim>
				</port>
				<port id="1" precision="FP32">
					<dim>32</dim>
					<dim>2</dim>
					<dim>3</dim>
					<dim>3</dim>
				</port>
			</input>
			<output>
				<port id="2" precision="FP32">
					<dim>1</dim>
					<dim>32</dim>
					<dim>224</dim>
					<dim>224</dim>
				</port>
			</output>
		</layer>
		<layer id="12" name="Reshape_1997" type="Const" version="opset1">
			<data element_type="f32" shape="1, 32, 1, 1" offset="712" size="128" />
			<output>
				<port id="0" precision="FP32">
					<dim>1</dim>
					<dim>32</dim>
					<dim>1</dim>
					<dim>1</dim>
				</port>
			</output>
		</layer>
		<layer id="13" name="/freq_stream/freq_stream.0/Conv" type="Add" version="opset1">
			<data auto_broadcast="numpy" />
			<input>
				<port id="0" precision="FP32">
					<dim>1</dim>
					<dim>32</dim>
					<dim>224</dim>
					<dim>224</dim>
				</port>
				<port id="1" precision="FP32">
					<dim>1</dim>
					<dim>32</dim>
					<dim>1</dim>
					<dim>1</dim>
				</port>
			</input>
			<output>
				<port id="2" precision="FP32" names="/freq_stream/freq_stream.0/Conv_output_0">
					<dim>1</dim>
					<dim>32</dim>
					<dim>224</dim>
					<dim>224</dim>
				</port>
			</output>
		</layer>
		<layer id="14" name="/freq_stream/freq_stream.2/Relu" type="ReLU" version="opset1">
			<input>
				<port id="0" precision="FP32">
					<dim>1</dim>
					<dim>32</dim>
					<dim>224</dim>
					<dim>224</dim>
				</port>
			</input>
			<output>
				<port id="1" precision="FP32" names="/freq_stream/freq_stream.2/Relu_output_0">
					<dim>1</dim>
					<dim>32</dim>
					<dim>224</dim>
					<dim>224</dim>
				</port>
			</output>
		</layer>
		<layer id="15" name="/freq_stream/freq_stream.2/Relu/fq_output_0/input_low" type="Const" version="opset1">
			<data element_type="f32" shape="" offset="0" size="4" />
			<output>
				<port id="0" precision="FP32" />
			</output>
		</layer>
		<layer id="16" name="/freq_stream/freq_stream.2/Relu/fq_output_0/input_high" type="Const" version="opset1">
			<data element_type="f32" shape="" offset="840" size="4" />
			<output>
				<port id="0" precision="FP32" />
			</output>
		</layer>
		<layer id="17" name="/freq_stream/freq_stream.2/Relu/fq_output_0/output_low" type="Const" version="opset1">
			<data element_type="f32" shape="" offset="0" size="4" />
			<output>
				<port id="0" precision="FP32" />
			</output>
		</layer>
		<layer id="18" name="/freq_stream/freq_stream.2/Relu/fq_output_0/output_high" type="Const" version="opset1">
			<data element_type="f32" shape="" offset="840" size="4" />
			<output>
				<port id="0" precision="FP32" />
			</output>
		</layer>
		<layer id="19" name="/freq_stream/freq_stream.2/Relu/fq_output_0" type="FakeQuantize" version="opset1">
			<data levels="256" auto_broadcast="numpy" />
			<input>
				<port id="0" precision="FP32">
					<dim>1</dim>
					<dim>32</dim>
					<dim>224</dim>
					<dim>224</dim>
				</port>
				<port id="1" precision="FP32" />
				<port id="2" precision="FP32" />
				<port id="3" precision="FP32" />
				<port id="4" precision="FP32" />
			</input>
			<output>
				<port id="5" precision="FP32">
					<dim>1</dim>
					<dim>32</dim>
					<dim>224</dim>
					<dim>224</dim>
				</port>
			</output>
		</layer>
		<layer id="20" name="/freq_stream/freq_stream.3/MaxPool" type="MaxPool" version="opset8">
			<data strides="2, 2" dilations="1, 1" pads_begin="0, 0" pads_end="0, 0" kernel="2, 2" rounding_type="floor" auto_pad="explicit" index_element_type="i64" axis="0" />
			<input>
				<port id="0" precision="FP32">
					<dim>1</dim>
					<dim>32</dim>
					<dim>224</dim>
					<dim>224</dim>
				</port>
			</input>
			<output>
				<port id="1" precision="FP32" names="/freq_stream/freq_stream.3/MaxPool_output_0">
					<dim>1</dim>
					<dim>32</dim>
					<dim>112</dim>
					<dim>112</dim>
				</port>
				<port id="2" precision="I64">
					<dim>1</dim>
					<dim>32</dim>
					<dim>112</dim>
					<dim>112</dim>
				</port>
			</output>
		</layer>
		<layer id="21" name="Constant_247847" type="Const" version="opset1">
			<data element_type="i8" shape="64, 32, 3, 3" offset="844" size="18432" />
			<output>
				<port id="0" precision="I8">
					<dim>64</dim>
					<dim>32</dim>
					<dim>3</dim>
					<dim>3</dim>
				</port>
			</output>
		</layer>
		<layer id="22" name="Convert_247848" type="Convert" version="opset1">
			<data destination_type="f32" />
			<input>
				<port id="0" precision="I8">
					<dim>64</dim>
					<dim>32</dim>
					<dim>3</dim>
					<dim>3</dim>
				</port>
			</input>
			<output>
				<port id="1" precision="FP32">
					<dim>64</dim>
					<dim>32</dim>
					<dim>3</dim>
					<dim>3</dim>
				</port>
			</output>
		</layer>
		<layer id="23" name="Constant_247849" type="Const" version="opset1">
			<data element_type="f32" shape="64, 1, 1, 1" offset="19276" size="256" />
			<output>
				<port id="0" precision="FP32">
					<dim>64</dim>
					<dim>1</dim>
					<dim>1</dim>
					<dim>1</dim>
				</port>
			</output>
		</layer>
		<layer id="24" name="/freq_stream/freq_stream.4/Conv/WithoutBiases/fq_weights_1" type="Multiply" version="opset1">
			<data auto_broadcast="numpy" />
			<input>
				<port id="0" precision="FP32">
					<dim>64</dim>
					<dim>32</dim>
					<dim>3</dim>
					<dim>3</dim>
				</port>
				<port id="1" precision="FP32">
					<dim>64</dim>
					<dim>1</dim>
					<dim>1</dim>
					<dim>1</dim>
				</port>
			</input>
			<output>
				<port id="2" precision="FP32">
					<dim>64</dim>
					<dim>32</dim>
					<dim>3</dim>
					<dim>3</dim>
				</port>
			</output>
		</layer>
		<layer id="25" name="/freq_stream/freq_stream.4/Conv/WithoutBiases" type="Convolution" version="opset1">
			<data strides="1, 1" dilations="1, 1" pads_begin="1, 1" pads_end="1, 1" auto_pad="explicit" />
			<input>
				<port id="0" precision="FP32">
					<dim>1</dim>
					<dim>32</dim>
					<dim>112</dim>
					<dim>112</dim>
				</port>
				<port id="1" precision="FP32">
					<dim>64</dim>
					<dim>32</dim>
					<dim>3</dim>
					<dim>3</dim>
				</port>
			</input>
			<output>
				<port id="2" precision="FP32" names="/freq_stream/freq_stream.4/Conv_output_0">
					<dim>1</dim>
					<dim>64</dim>
					<dim>112</dim>
					<dim>112</dim>
				</port>
			</output>
		</layer>
		<layer id="26" name="/freq_stream/freq_stream.6/Relu" type="ReLU" version="opset1">
			<input>
				<port id="0" precision="FP32">
					<dim>1</dim>
					<dim>64</dim>
					<dim>112</dim>
					<dim>112</dim>
				</port>
			</input>
			<output>
				<port id="1" precision="FP32" names="/freq_stream/freq_stream.6/Relu_output_0">
					<dim>1</dim>
					<dim>64</dim>
					<dim>112</dim>
					<dim>112</dim>
				</port>
			</output>
		</layer>
		<layer id="27" name="/freq_stream/freq_stream.6/Relu/fq_output_0/input_low" type="Const" version="opset1">
			<data element_type="f32" shape="" offset="0" size="4" />
			<output>
				<port id="0" precision="FP32" />
			</output>
		</layer>
		<layer id="28" name="/freq_stream/freq_stream.6/Relu/fq_output_0/input_high" type="Const" version="opset1">
			<data element_type="f32" shape="" offset="19532" size="4" />
			<output>
				<port id="0" precision="FP32" />
			</output>
		</layer>
		<layer id="29" name="/freq_stream/freq_stream.6/Relu/fq_output_0/output_low" type="Const" version="opset1">
			<data element_type="f32" shape="" offset="0" size="4" />
			<output>
				<port id="0" precision="FP32" />
			</output>
		</layer>
		<layer id="30" name="/freq_stream/freq_stream.6/Relu/fq_output_0/output_high" type="Const" version="opset1">
			<data element_type="f32" shape="" offset="19532" size="4" />
			<output>
				<port id="0" precision="FP32" />
			</output>
		</layer>
		<layer id="31" name="/freq_stream/freq_stream.6/Relu/fq_output_0" type="FakeQuantize" version="opset1">
			<data levels="256" auto_broadcast="numpy" />
			<input>
				<port id="0" precision="FP32">
					<dim>1</dim>
					<dim>64</dim>
					<dim>112</dim>
					<dim>112</dim>
				</port>
				<port id="1" precision="FP32" />
				<port id="2" precision="FP32" />
				<port id="3" precision="FP32" />
				<port id="4" precision="FP32" />
			</input>
			<output>
				<port id="5" precision="FP32">
					<dim>1</dim>
					<dim>64</dim>
					<dim>112</dim>
					<dim>112</dim>
				</port>
			</output>
		</layer>
		<layer id="32" name="Range_2023" type="Const" version="opset1">
			<data element_type="i64" shape="2" offset="19536" size="16" />
			<output>
				<port id="0" precision="I64">
					<dim>2</dim>
				</port>
			</output>
		</layer>
		<layer id="33" name="/freq_stream/freq_stream.7/GlobalAveragePool" type="ReduceMean" version="opset1">
			<data keep_dims="true" />
			<input>
				<port id="0" precision="FP32">
					<dim>1</dim>
					<dim>64</dim>
					<dim>112</dim>
					<dim>112</dim>
				</port>
				<port id="1" precision="I64">
					<dim>2</dim>
				</port>
			</input>
			<output>
				<port id="2" precision="FP32" names="/freq_stream/freq_stream.7/GlobalAveragePool_output_0">
					<dim>1</dim>
					<dim>64</dim>
					<dim>1</dim>
					<dim>1</dim>
				</port>
			</output>
		</layer>
		<layer id="34" name="/freq_stream/freq_stream.7/GlobalAveragePool/fq_output_0/input_low" type="Const" version="opset1">
			<data element_type="f32" shape="" offset="19552" size="4" />
			<output>
				<port id="0" precision="FP32" />
			</output>
		</layer>
		<layer id="35" name="/freq_stream/freq_stream.7/GlobalAveragePool/fq_output_0/input_high" type="Const" version="opset1">
			<data element_type="f32" shape="" offset="19556" size="4" />
			<output>
				<port id="0" precision="FP32" />
			</output>
		</layer>
		<layer id="36" name="/freq_stream/freq_stream.7/GlobalAveragePool/fq_output_0/output_low" type="Const" version="opset1">
			<data element_type="f32" shape="" offset="19552" size="4" />
			<output>
				<port id="0" precision="FP32" />
			</output>
		</layer>
		<layer id="37" name="/freq_stream/freq_stream.7/GlobalAveragePool/fq_output_0/output_high" type="Const" version="opset1">
			<data element_type="f32" shape="" offset="19556" size="4" />
			<output>
				<port id="0" precision="FP32" />
			</output>
		</layer>
		<layer id="38" name="/freq_stream/freq_stream.7/GlobalAveragePool/fq_output_0" type="FakeQuantize" version="opset1">
			<data levels="256" auto_broadcast="numpy" />
			<input>
				<port id="0" precision="FP32">
					<dim>1</dim>
					<dim>64</dim>
					<dim>1</dim>
					<dim>1</dim>
				</port>
				<port id="1" precision="FP32" />
				<port id="2" precision="FP32" />
				<port id="3" precision="FP32" />
				<port id="4" precision="FP32" />
			</input>
			<output>
				<port id="5" precision="FP32">
					<dim>1</dim>
					<dim>64</dim>
					<dim>1</dim>
					<dim>1</dim>
				</port>
			</output>
		</layer>
		<layer id="39" name="Constant_2027" type="Const" version="opset1">
			<data element_type="i64" shape="2" offset="19560" size="16" />
			<output>
				<port id="0" precision="I64">
					<dim>2</dim>
				</port>
			</output>
		</layer>
		<layer id="40" name="/Flatten_1" type="Reshape" version="opset1">
			<data special_zero="true" />
			<input>
				<port id="0" precision="FP32">
					<dim>1</dim>
					<dim>64</dim>
					<dim>1</dim>
					<dim>1</dim>
				</port>
				<port id="1" precision="I64">
					<dim>2</dim>
				</port>
			</input>
			<output>
				<port id="2" precision="FP32" names="/Flatten_1_output_0">
					<dim>1</dim>
					<dim>64</dim>
				</port>
			</output>
		</layer>
		<layer id="41" name="Constant_247851" type="Const" version="opset1">
			<data element_type="i8" shape="6272, 64" offset="19576" size="401408" />
			<output>
				<port id="0" precision="I8">
					<dim>6272</dim>
					<dim>64</dim>
				</port>
			</output>
		</layer>
		<layer id="42" name="Convert_247852" type="Convert" version="opset1">
			<data destination_type="f32" />
			<input>
				<port id="0" precision="I8">
					<dim>6272</dim>
					<dim>64</dim>
				</port>
			</input>
			<output>
				<port id="1" precision="FP32">
					<dim>6272</dim>
					<dim>64</dim>
				</port>
			</output>
		</layer>
		<layer id="43" name="Constant_247853" type="Const" version="opset1">
			<data element_type="f32" shape="6272, 1" offset="420984" size="25088" />
			<output>
				<port id="0" precision="FP32">
					<dim>6272</dim>
					<dim>1</dim>
				</port>
			</output>
		</layer>
		<layer id="44" name="/recon_head/recon_head.0/Gemm/WithoutBiases/fq_weights_1" type="Multiply" version="opset1">
			<data auto_broadcast="numpy" />
			<input>
				<port id="0" precision="FP32">
					<dim>6272</dim>
					<dim>64</dim>
				</port>
				<port id="1" precision="FP32">
					<dim>6272</dim>
					<dim>1</dim>
				</port>
			</input>
			<output>
				<port id="2" precision="FP32">
					<dim>6272</dim>
					<dim>64</dim>
				</port>
			</output>
		</layer>
		<layer id="45" name="/recon_head/recon_head.0/Gemm/WithoutBiases" type="MatMul" version="opset1">
			<data transpose_a="false" transpose_b="true" />
			<input>
				<port id="0" precision="FP32">
					<dim>1</dim>
					<dim>64</dim>
				</port>
				<port id="1" precision="FP32">
					<dim>6272</dim>
					<dim>64</dim>
				</port>
			</input>
			<output>
				<port id="2" precision="FP32">
					<dim>1</dim>
					<dim>6272</dim>
				</port>
			</output>
		</layer>
		<layer id="46" name="Constant_9408" type="Const" version="opset1">
			<data element_type="f32" shape="1, 6272" offset="446072" size="25088" />
			<output>
				<port id="0" precision="FP32">
					<dim>1</dim>
					<dim>6272</dim>
				</port>
			</output>
		</layer>
		<layer id="47" name="/recon_head/recon_head.0/Gemm" type="Add" version="opset1">
			<data auto_broadcast="numpy" />
			<input>
				<port id="0" precision="FP32">
					<dim>1</dim>
					<dim>6272</dim>
				</port>
				<port id="1" precision="FP32">
					<dim>1</dim>
					<dim>6272</dim>
				</port>
			</input>
			<output>
				<port id="2" precision="FP32" names="/recon_head/recon_head.0/Gemm_output_0">
					<dim>1</dim>
					<dim>6272</dim>
				</port>
			</output>
		</layer>
		<layer id="48" name="/recon_head/recon_head.1/Relu" type="ReLU" version="opset1">
			<input>
				<port id="0" precision="FP32">
					<dim>1</dim>
					<dim>6272</dim>
				</port>
			</input>
			<output>
				<port id="1" precision="FP32" names="/recon_head/recon_head.1/Relu_output_0">
					<dim>1</dim>
					<dim>6272</dim>
				</port>
			</output>
		</layer>
		<layer id="49" name="/recon_head/recon_head.1/Relu/fq_output_0/input_low" type="Const" version="opset1">
			<data element_type="f32" shape="" offset="0" size="4" />
			<output>
				<port id="0" precision="FP32" />
			</output>
		</layer>
		<layer id="50" name="/recon_head/recon_head.1/Relu/fq_output_0/input_high" type="Const" version="opset1">
			<data element_type="f32" shape="" offset="471160" size="4" />
			<output>
				<port id="0" precision="FP32" />
			</output>
		</layer>
		<layer id="51" name="/recon_head/recon_head.1/Relu/fq_output_0/output_low" type="Const" version="opset1">
			<data element_type="f32" shape="" offset="0" size="4" />
			<output>
				<port id="0" precision="FP32" />
			</output>
		</layer>
		<layer id="52" name="/recon_head/recon_head.1/Relu/fq_output_0/output_high" type="Const" version="opset1">
			<data element_type="f32" shape="" offset="471160" size="4" />
			<output>
				<port id="0" precision="FP32" />
			</output>
		</layer>
		<layer id="53" name="/recon_head/recon_head.1/Relu/fq_output_0" type="FakeQuantize" version="opset1">
			<data levels="256" auto_broadcast="numpy" />
			<input>
				<port id="0" precision="FP32">
					<dim>1</dim>
					<dim>6272</dim>
				</port>
				<port id="1" precision="FP32" />
				<port id="2" precision="FP32" />
				<port id="3" precision="FP32" />
				<port id="4" precision="FP32" />
			</input>
			<output>
				<port id="5" precision="FP32">
					<dim>1</dim>
					<dim>6272</dim>
				</port>
			</output>
		</layer>
		<layer id="54" name="Constant_9490" type="Const" version="opset1">
			<data element_type="i64" shape="4" offset="471164" size="32" />
			<output>
				<port id="0" precision="I64">
					<dim>4</dim>
				</port>
			</output>
		</layer>
		<layer id="55" name="/recon_head/recon_head.2/Reshape_2" type="Reshape" version="opset1">
			<data special_zero="true" />
			<input>
				<port id="0" precision="FP32">
					<dim>1</dim>
					<dim>6272</dim>
				</port>
				<port id="1" precision="I64">
					<dim>4</dim>
				</port>
			</input>
			<output>
				<port id="2" precision="FP32" names="/recon_head/recon_head.2/Reshape_2_output_0">
					<dim>1</dim>
					<dim>128</dim>
					<dim>7</dim>
					<dim>7</dim>
				</port>
			</output>
		</layer>
		<layer id="56" name="/recon_head/recon_head.3/Constant_output_0" type="Const" version="opset1">
			<data element_type="f32" shape="4" offset="471196" size="16" />
			<output>
				<port id="0" precision="FP32" names="/recon_head/recon_head.3/Constant_output_0">
					<dim>4</dim>
				</port>
			</output>
		</layer>
		<layer id="57" name="/recon_head/recon_head.3/Resize" type="Interpolate" version="opset11">
			<data mode="nearest" shape_calculation_mode="scales" coordinate_transformation_mode="asymmetric" nearest_mode="floor" antialias="false" pads_begin="0, 0, 0, 0" pads_end="0, 0, 0, 0" cube_coeff="-0.75" />
			<input>
				<port id="0" precision="FP32">
					<dim>1</dim>
					<dim>128</dim>
					<dim>7</dim>
					<dim>7</dim>
				</port>
				<port id="1" precision="FP32">
					<dim>4</dim>
				</port>
			</input>
			<output>
				<port id="2" precision="FP32" names="/recon_head/recon_head.3/Resize_output_0">
					<dim>1</dim>
					<dim>128</dim>
					<dim>224</dim>
					<dim>224</dim>
				</port>
			</output>
		</layer>
		<layer id="58" name="/recon_head/recon_head.3/Resize/fq_output_0/input_low" type="Const" version="opset1">
			<data element_type="f32" shape="" offset="0" size="4" />
			<output>
				<port id="0" precision="FP32" />
			</output>
		</layer>
		<layer id="59" name="/recon_head/recon_head.3/Resize/fq_output_0/input_high" type="Const" version="opset1">
			<data element_type="f32" shape="" offset="471160" size="4" />
			<output>
				<port id="0" precision="FP32" />
			</output>
		</layer>
		<layer id="60" name="/recon_head/recon_head.3/Resize/fq_output_0/output_low" type="Const" version="opset1">
			<data element_type="f32" shape="" offset="0" size="4" />
			<output>
				<port id="0" precision="FP32" />
			</output>
		</layer>
		<layer id="61" name="/recon_head/recon_head.3/Resize/fq_output_0/output_high" type="Const" version="opset1">
			<data element_type="f32" shape="" offset="471160" size="4" />
			<output>
				<port id="0" precision="FP32" />
			</output>
		</layer>
		<layer id="62" name="/recon_head/recon_head.3/Resize/fq_output_0" type="FakeQuantize" version="opset1">
			<data levels="256" auto_broadcast="numpy" />
			<input>
				<port id="0" precision="FP32">
					<dim>1</dim>
					<dim>128</dim>
					<dim>224</dim>
					<dim>224</dim>
				</port>
				<port id="1" precision="FP32" />
				<port id="2" precision="FP32" />
				<port id="3" precision="FP32" />
				<port id="4" precision="FP32" />
			</input>
			<output>
				<port id="5" precision="FP32">
					<dim>1</dim>
					<dim>128</dim>
					<dim>224</dim>
					<dim>224</dim>
				</port>
			</output>
		</layer>
		<layer id="63" name="Constant_247855" type="Const" version="opset1">
			<data element_type="i8" shape="2, 128, 3, 3" offset="471212" size="2304" />
			<output>
				<port id="0" precision="I8">
					<dim>2</dim>
					<dim>128</dim>
					<dim>3</dim>
					<dim>3</dim>
				</port>
			</output>
		</layer>
		<layer id="64" name="Convert_247856" type="Convert" version="opset1">
			<data destination_type="f32" />
			<input>
				<port id="0" precision="I8">
					<dim>2</dim>
					<dim>128</dim>
					<dim>3</dim>
					<dim>3</dim>
				</port>
			</input>
			<output>
				<port id="1" precision="FP32">
					<dim>2</dim>
					<dim>128</dim>
					<dim>3</dim>
					<dim>3</dim>
				</port>
			</output>
		</layer>
		<layer id="65" name="Constant_247857" type="Const" version="opset1">
			<data element_type="f32" shape="2, 1, 1, 1" offset="473516" size="8" />
			<output>
				<port id="0" precision="FP32">
					<dim>2</dim>
					<dim>1</dim>
					<dim>1</dim>
					<dim>1</dim>
				</port>
			</output>
		</layer>
		<layer id="66" name="/recon_head/recon_head.4/Conv/WithoutBiases/fq_weights_1" type="Multiply" version="opset1">
			<data auto_broadcast="numpy" />
			<input>
				<port id="0" precision="FP32">
					<dim>2</dim>
					<dim>128</dim>
					<dim>3</dim>
					<dim>3</dim>
				</port>
				<port id="1" precision="FP32">
					<dim>2</dim>
					<dim>1</dim>
					<dim>1</dim>
					<dim>1</dim>
				</port>
			</input>
			<output>
				<port id="2" precision="FP32">
					<dim>2</dim>
					<dim>128</dim>
					<dim>3</dim>
					<dim>3</dim>
				</port>
			</output>
		</layer>
		<layer id="67" name="/recon_head/recon_head.4/Conv/WithoutBiases" type="Convolution" version="opset1">
			<data strides="1, 1" dilations="1, 1" pads_begin="1, 1" pads_end="1, 1" auto_pad="explicit" />
			<input>
				<port id="0" precision="FP32">
					<dim>1</dim>
					<dim>128</dim>
					<dim>224</dim>
					<dim>224</dim>
				</port>
				<port id="1" precision="FP32">
					<dim>2</dim>
					<dim>128</dim>
					<dim>3</dim>
					<dim>3</dim>
				</port>
			</input>
			<output>
				<port id="2" precision="FP32">
					<dim>1</dim>
					<dim>2</dim>
					<dim>224</dim>
					<dim>224</dim>
				</port>
			</output>
		</layer>
		<layer id="68" name="Reshape_2096" type="Const" version="opset1">
			<data element_type="f32" shape="1, 2, 1, 1" offset="473524" size="8" />
			<output>
				<port id="0" precision="FP32">
					<dim>1</dim>
					<dim>2</dim>
					<dim>1</dim>
					<dim>1</dim>
				</port>
			</output>
		</layer>
		<layer id="69" name="/recon_head/recon_head.4/Conv_output_0" type="Add" version="opset1">
			<data auto_broadcast="numpy" />
			<input>
				<port id="0" precision="FP32">
					<dim>1</dim>
					<dim>2</dim>
					<dim>224</dim>
					<dim>224</dim>
				</port>
				<port id="1" precision="FP32">
					<dim>1</dim>
					<dim>2</dim>
					<dim>1</dim>
					<dim>1</dim>
				</port>
			</input>
			<output>
				<port id="2" precision="FP32" names="/recon_head/recon_head.4/Conv_output_0">
					<dim>1</dim>
					<dim>2</dim>
					<dim>224</dim>
					<dim>224</dim>
				</port>
			</output>
		</layer>
		<layer id="70" name="spatial_in/fq_output_0/input_low" type="Const" version="opset1">
			<data element_type="f32" shape="" offset="0" size="4" />
			<output>
				<port id="0" precision="FP32" />
			</output>
		</layer>
		<layer id="71" name="spatial_in/fq_output_0/input_high" type="Const" version="opset1">
			<data element_type="f32" shape="" offset="473532" size="4" />
			<output>
				<port id="0" precision="FP32" />
			</output>
		</layer>
		<layer id="72" name="spatial_in/fq_output_0/output_low" type="Const" version="opset1">
			<data element_type="f32" shape="" offset="0" size="4" />
			<output>
				<port id="0" precision="FP32" />
			</output>
		</layer>
		<layer id="73" name="spatial_in/fq_output_0/output_high" type="Const" version="opset1">
			<data element_type="f32" shape="" offset="473532" size="4" />
			<output>
				<port id="0" precision="FP32" />
			</output>
		</layer>
		<layer id="74" name="spatial_in/fq_output_0" type="FakeQuantize" version="opset1">
			<data levels="256" auto_broadcast="numpy" />
			<input>
				<port id="0" precision="FP32">
					<dim>1</dim>
					<dim>3</dim>
					<dim>224</dim>
					<dim>224</dim>
				</port>
				<port id="1" precision="FP32" />
				<port id="2" precision="FP32" />
				<port id="3" precision="FP32" />
				<port id="4" precision="FP32" />
			</input>
			<output>
				<port id="5" precision="FP32">
					<dim>1</dim>
					<dim>3</dim>
					<dim>224</dim>
					<dim>224</dim>
				</port>
			</output>
		</layer>
		<layer id="75" name="Constant_247859" type="Const" version="opset1">
			<data element_type="i8" shape="32, 3, 3, 3" offset="473536" size="864" />
			<output>
				<port id="0" precision="I8">
					<dim>32</dim>
					<dim>3</dim>
					<dim>3</dim>
					<dim>3</dim>
				</port>
			</output>
		</layer>
		<layer id="76" name="Convert_247860" type="Convert" version="opset1">
			<data destination_type="f32" />
			<input>
				<port id="0" precision="I8">
					<dim>32</dim>
					<dim>3</dim>
					<dim>3</dim>
					<dim>3</dim>
				</port>
			</input>
			<output>
				<port id="1" precision="FP32">
					<dim>32</dim>
					<dim>3</dim>
					<dim>3</dim>
					<dim>3</dim>
				</port>
			</output>
		</layer>
		<layer id="77" name="Constant_247861" type="Const" version="opset1">
			<data element_type="f32" shape="32, 1, 1, 1" offset="474400" size="128" />
			<output>
				<port id="0" precision="FP32">
					<dim>32</dim>
					<dim>1</dim>
					<dim>1</dim>
					<dim>1</dim>
				</port>
			</output>
		</layer>
		<layer id="78" name="/backbone/backbone.0/backbone.0.0/Conv/WithoutBiases/fq_weights_1" type="Multiply" version="opset1">
			<data auto_broadcast="numpy" />
			<input>
				<port id="0" precision="FP32">
					<dim>32</dim>
					<dim>3</dim>
					<dim>3</dim>
					<dim>3</dim>
				</port>
				<port id="1" precision="FP32">
					<dim>32</dim>
					<dim>1</dim>
					<dim>1</dim>
					<dim>1</dim>
				</port>
			</input>
			<output>
				<port id="2" precision="FP32">
					<dim>32</dim>
					<dim>3</dim>
					<dim>3</dim>
					<dim>3</dim>
				</port>
			</output>
		</layer>
		<layer id="79" name="/backbone/backbone.0/backbone.0.0/Conv/WithoutBiases" type="Convolution" version="opset1">
			<data strides="2, 2" dilations="1, 1" pads_begin="1, 1" pads_end="1, 1" auto_pad="explicit" />
			<input>
				<port id="0" precision="FP32">
					<dim>1</dim>
					<dim>3</dim>
					<dim>224</dim>
					<dim>224</dim>
				</port>
				<port id="1" precision="FP32">
					<dim>32</dim>
					<dim>3</dim>
					<dim>3</dim>
					<dim>3</dim>
				</port>
			</input>
			<output>
				<port id="2" precision="FP32" names="/backbone/backbone.0/backbone.0.0/Conv_output_0">
					<dim>1</dim>
					<dim>32</dim>
					<dim>112</dim>
					<dim>112</dim>
				</port>
			</output>
		</layer>
		<layer id="80" name="/backbone/backbone.0/backbone.0.2/HardSwish" type="HSwish" version="opset4">
			<input>
				<port id="0" precision="FP32">
					<dim>1</dim>
					<dim>32</dim>
					<dim>112</dim>
					<dim>112</dim>
				</port>
			</input>
			<output>
				<port id="1" precision="FP32" names="/backbone/backbone.0/backbone.0.2/HardSwish_output_0">
					<dim>1</dim>
					<dim>32</dim>
					<dim>112</dim>
					<dim>112</dim>
				</port>
			</output>
		</layer>
		<layer id="81" name="/backbone/backbone.0/backbone.0.2/HardSwish/fq_output_0/input_low" type="Const" version="opset1">
			<data element_type="f32" shape="1, 32, 1, 1" offset="474528" size="128" />
			<output>
				<port id="0" precision="FP32">
					<dim>1</dim>
					<dim>32</dim>
					<dim>1</dim>
					<dim>1</dim>
				</port>
			</output>
		</layer>
		<layer id="82" name="/backbone/backbone.0/backbone.0.2/HardSwish/fq_output_0/input_high" type="Const" version="opset1">
			<data element_type="f32" shape="1, 32, 1, 1" offset="474656" size="128" />
			<output>
				<port id="0" precision="FP32">
					<dim>1</dim>
					<dim>32</dim>
					<dim>1</dim>
					<dim>1</dim>
				</port>
			</output>
		</layer>
		<layer id="83" name="/backbone/backbone.0/backbone.0.2/HardSwish/fq_output_0/output_low" type="Const" version="opset1">
			<data element_type="f32" shape="1, 32, 1, 1" offset="474528" size="128" />
			<output>
				<port id="0" precision="FP32">
					<dim>1</dim>
					<dim>32</dim>
					<dim>1</dim>
					<dim>1</dim>
				</port>
			</output>
		</layer>
		<layer id="84" name="/backbone/backbone.0/backbone.0.2/HardSwish/fq_output_0/output_high" type="Const" version="opset1">
			<data element_type="f32" shape="1, 32, 1, 1" offset="474656" size="128" />
			<output>
				<port id="0" precision="FP32">
					<dim>1</dim>
					<dim>32</dim>
					<dim>1</dim>
					<dim>1</dim>
				</port>
			</output>
		</layer>
		<layer id="85" name="/backbone/backbone.0/backbone.0.2/HardSwish/fq_output_0" type="FakeQuantize" version="opset1">
			<data levels="256" auto_broadcast="numpy" />
			<input>
				<port id="0" precision="FP32">
					<dim>1</dim>
					<dim>32</dim>
					<dim>112</dim>
					<dim>112</dim>
				</port>
				<port id="1" precision="FP32">
					<dim>1</dim>
					<dim>32</dim>
					<dim>1</dim>
					<dim>1</dim>
				</port>
				<port id="2" precision="FP32">
					<dim>1</dim>
					<dim>32</dim>
					<dim>1</dim>
					<dim>1</dim>
				</port>
				<port id="3" precision="FP32">
					<dim>1</dim>
					<dim>32</dim>
					<dim>1</dim>
					<dim>1</dim>
				</port>
				<port id="4" precision="FP32">
					<dim>1</dim>
					<dim>32</dim>
					<dim>1</dim>
					<dim>1</dim>
				</port>
			</input>
			<output>
				<port id="5" precision="FP32">
					<dim>1</dim>
					<dim>32</dim>
					<dim>112</dim>
					<dim>112</dim>
				</port>
			</output>
		</layer>
		<layer id="86" name="Constant_247863" type="Const" version="opset1">
			<data element_type="i8" shape="32, 1, 1, 3, 3" offset="474784" size="288" />
			<output>
				<port id="0" precision="I8">
					<dim>32</dim>
					<dim>1</dim>
					<dim>1</dim>
					<dim>3</dim>
					<dim>3</dim>
				</port>
			</output>
		</layer>
		<layer id="87" name="Convert_247864" type="Convert" version="opset1">
			<data destination_type="f32" />
			<input>
				<port id="0" precision="I8">
					<dim>32</dim>
					<dim>1</dim>
					<dim>1</dim>
					<dim>3</dim>
					<dim>3</dim>
				</port>
			</input>
			<output>
				<port id="1" precision="FP32">
					<dim>32</dim>
					<dim>1</dim>
					<dim>1</dim>
					<dim>3</dim>
					<dim>3</dim>
				</port>
			</output>
		</layer>
		<layer id="88" name="Constant_247865" type="Const" version="opset1">
			<data element_type="f32" shape="32, 1, 1, 1, 1" offset="475072" size="128" />
			<output>
				<port id="0" precision="FP32">
					<dim>32</dim>
					<dim>1</dim>
					<dim>1</dim>
					<dim>1</dim>
					<dim>1</dim>
				</port>
			</output>
		</layer>
		<layer id="89" name="Multiply_8751/fq_weights_1" type="Multiply" version="opset1">
			<data auto_broadcast="numpy" />
			<input>
				<port id="0" precision="FP32">
					<dim>32</dim>
					<dim>1</dim>
					<dim>1</dim>
					<dim>3</dim>
					<dim>3</dim>
				</port>
				<port id="1" precision="FP32">
					<dim>32</dim>
					<dim>1</dim>
					<dim>1</dim>
					<dim>1</dim>
					<dim>1</dim>
				</port>
			</input>
			<output>
				<port id="2" precision="FP32">
					<dim>32</dim>
					<dim>1</dim>
					<dim>1</dim>
					<dim>3</dim>
					<dim>3</dim>
				</port>
			</output>
		</layer>
		<layer id="90" name="Multiply_8751" type="GroupConvolution" version="opset1">
			<data strides="1, 1" pads_begin="1, 1" pads_end="1, 1" dilations="1, 1" auto_pad="explicit" />
			<input>
				<port id="0" precision="FP32">
					<dim>1</dim>
					<dim>32</dim>
					<dim>112</dim>
					<dim>112</dim>
				</port>
				<port id="1" precision="FP32">
					<dim>32</dim>
					<dim>1</dim>
					<dim>1</dim>
					<dim>3</dim>
					<dim>3</dim>
				</port>
			</input>
			<output>
				<port id="2" precision="FP32" names="/backbone/backbone.1/backbone.1.0/block/block.0/Conv_output_0,/backbone/backbone.1/backbone.1.0/block/block.1/BatchNormalization_output_0">
					<dim>1</dim>
					<dim>32</dim>
					<dim>112</dim>
					<dim>112</dim>
				</port>
			</output>
		</layer>
		<layer id="91" name="/backbone/backbone.1/backbone.1.0/block/block.2/HardSwish" type="HSwish" version="opset4">
			<input>
				<port id="0" precision="FP32">
					<dim>1</dim>
					<dim>32</dim>
					<dim>112</dim>
					<dim>112</dim>
				</port>
			</input>
			<output>
				<port id="1" precision="FP32" names="/backbone/backbone.1/backbone.1.0/block/block.2/HardSwish_output_0">
					<dim>1</dim>
					<dim>32</dim>
					<dim>112</dim>
					<dim>112</dim>
				</port>
			</output>
		</layer>
		<layer id="92" name="/backbone/backbone.1/backbone.1.0/block/block.2/HardSwish/fq_output_0/input_low" type="Const" version="opset1">
			<data element_type="f32" shape="" offset="475200" size="4" />
			<output>
				<port id="0" precision="FP32" />
			</output>
		</layer>
		<layer id="93" name="/backbone/backbone.1/backbone.1.0/block/block.2/HardSwish/fq_output_0/input_high" type="Const" version="opset1">
			<data element_type="f32" shape="" offset="475204" size="4" />
			<output>
				<port id="0" precision="FP32" />
			</output>
		</layer>
		<layer id="94" name="/backbone/backbone.1/backbone.1.0/block/block.2/HardSwish/fq_output_0/output_low" type="Const" version="opset1">
			<data element_type="f32" shape="" offset="475200" size="4" />
			<output>
				<port id="0" precision="FP32" />
			</output>
		</layer>
		<layer id="95" name="/backbone/backbone.1/backbone.1.0/block/block.2/HardSwish/fq_output_0/output_high" type="Const" version="opset1">
			<data element_type="f32" shape="" offset="475204" size="4" />
			<output>
				<port id="0" precision="FP32" />
			</output>
		</layer>
		<layer id="96" name="/backbone/backbone.1/backbone.1.0/block/block.2/HardSwish/fq_output_0" type="FakeQuantize" version="opset1">
			<data levels="256" auto_broadcast="numpy" />
			<input>
				<port id="0" precision="FP32">
					<dim>1</dim>
					<dim>32</dim>
					<dim>112</dim>
					<dim>112</dim>
				</port>
				<port id="1" precision="FP32" />
				<port id="2" precision="FP32" />
				<port id="3" precision="FP32" />
				<port id="4" precision="FP32" />
			</input>
			<output>
				<port id="5" precision="FP32">
					<dim>1</dim>
					<dim>32</dim>
					<dim>112</dim>
					<dim>112</dim>
				</port>
			</output>
		</layer>
		<layer id="97" name="Range_77" type="Const" version="opset1">
			<data element_type="i64" shape="2" offset="19536" size="16" />
			<output>
				<port id="0" precision="I64">
					<dim>2</dim>
				</port>
			</output>
		</layer>
		<layer id="98" name="/backbone/backbone.1/backbone.1.0/block/block.3/avgpool/GlobalAveragePool" type="ReduceMean" version="opset1">
			<data keep_dims="true" />
			<input>
				<port id="0" precision="FP32">
					<dim>1</dim>
					<dim>32</dim>
					<dim>112</dim>
					<dim>112</dim>
				</port>
				<port id="1" precision="I64">
					<dim>2</dim>
				</port>
			</input>
			<output>
				<port id="2" precision="FP32" names="/backbone/backbone.1/backbone.1.0/block/block.3/avgpool/GlobalAveragePool_output_0">
					<dim>1</dim>
					<dim>32</dim>
					<dim>1</dim>
					<dim>1</dim>
				</port>
			</output>
		</layer>
		<layer id="99" name="/backbone/backbone.1/backbone.1.0/block/block.3/avgpool/GlobalAveragePool/fq_output_0/input_low" type="Const" version="opset1">
			<data element_type="f32" shape="" offset="475208" size="4" />
			<output>
				<port id="0" precision="FP32" />
			</output>
		</layer>
		<layer id="100" name="/backbone/backbone.1/backbone.1.0/block/block.3/avgpool/GlobalAveragePool/fq_output_0/input_high" type="Const" version="opset1">
			<data element_type="f32" shape="" offset="475212" size="4" />
			<output>
				<port id="0" precision="FP32" />
			</output>
		</layer>
		<layer id="101" name="/backbone/backbone.1/backbone.1.0/block/block.3/avgpool/GlobalAveragePool/fq_output_0/output_low" type="Const" version="opset1">
			<data element_type="f32" shape="" offset="475208" size="4" />
			<output>
				<port id="0" precision="FP32" />
			</output>
		</layer>
		<layer id="102" name="/backbone/backbone.1/backbone.1.0/block/block.3/avgpool/GlobalAveragePool/fq_output_0/output_high" type="Const" version="opset1">
			<data element_type="f32" shape="" offset="475212" size="4" />
			<output>
				<port id="0" precision="FP32" />
			</output>
		</layer>
		<layer id="103" name="/backbone/backbone.1/backbone.1.0/block/block.3/avgpool/GlobalAveragePool/fq_output_0" type="FakeQuantize" version="opset1">
			<data levels="256" auto_broadcast="numpy" />
			<input>
				<port id="0" precision="FP32">
					<dim>1</dim>
					<dim>32</dim>
					<dim>1</dim>
					<dim>1</dim>
				</port>
				<port id="1" precision="FP32" />
				<port id="2" precision="FP32" />
				<port id="3" precision="FP32" />
				<port id="4" precision="FP32" />
			</input>
			<output>
				<port id="5" precision="FP32">
					<dim>1</dim>
					<dim>32</dim>
					<dim>1</dim>
					<dim>1</dim>
				</port>
			</output>
		</layer>
		<layer id="104" name="Constant_247867" type="Const" version="opset1">
			<data element_type="i8" shape="8, 32, 1, 1" offset="475216" size="256" />
			<output>
				<port id="0" precision="I8">
					<dim>8</dim>
					<dim>32</dim>
					<dim>1</dim>
					<dim>1</dim>
				</port>
			</output>
		</layer>
		<layer id="105" name="Convert_247868" type="Convert" version="opset1">
			<data destination_type="f32" />
			<input>
				<port id="0" precision="I8">
					<dim>8</dim>
					<dim>32</dim>
					<dim>1</dim>
					<dim>1</dim>
				</port>
			</input>
			<output>
				<port id="1" precision="FP32">
					<dim>8</dim>
					<dim>32</dim>
					<dim>1</dim>
					<dim>1</dim>
				</port>
			</output>
		</layer>
		<layer id="106" name="Constant_247869" type="Const" version="opset1">
			<data element_type="f32" shape="8, 1, 1, 1" offset="475472" size="32" />
			<output>
				<port id="0" precision="FP32">
					<dim>8</dim>
					<dim>1</dim>
					<dim>1</dim>
					<dim>1</dim>
				</port>
			</output>
		</layer>
		<layer id="107" name="/backbone/backbone.1/backbone.1.0/block/block.3/fc1/Conv/WithoutBiases/fq_weights_1" type="Multiply" version="opset1">
			<data auto_broadcast="numpy" />
			<input>
				<port id="0" precision="FP32">
					<dim>8</dim>
					<dim>32</dim>
					<dim>1</dim>
					<dim>1</dim>
				</port>
				<port id="1" precision="FP32">
					<dim>8</dim>
					<dim>1</dim>
					<dim>1</dim>
					<dim>1</dim>
				</port>
			</input>
			<output>
				<port id="2" precision="FP32">
					<dim>8</dim>
					<dim>32</dim>
					<dim>1</dim>
					<dim>1</dim>
				</port>
			</output>
		</layer>
		<layer id="108" name="/backbone/backbone.1/backbone.1.0/block/block.3/fc1/Conv/WithoutBiases" type="Convolution" version="opset1">
			<data strides="1, 1" dilations="1, 1" pads_begin="0, 0" pads_end="0, 0" auto_pad="explicit" />
			<input>
				<port id="0" precision="FP32">
					<dim>1</dim>
					<dim>32</dim>
					<dim>1</dim>
					<dim>1</dim>
				</port>
				<port id="1" precision="FP32">
					<dim>8</dim>
					<dim>32</dim>
					<dim>1</dim>
					<dim>1</dim>
				</port>
			</input>
			<output>
				<port id="2" precision="FP32">
					<dim>1</dim>
					<dim>8</dim>
					<dim>1</dim>
					<dim>1</dim>
				</port>
			</output>
		</layer>
		<layer id="109" name="Reshape_94" type="Const" version="opset1">
			<data element_type="f32" shape="1, 8, 1, 1" offset="475504" size="32" />
			<output>
				<port id="0" precision="FP32">
					<dim>1</dim>
					<dim>8</dim>
					<dim>1</dim>
					<dim>1</dim>
				</port>
			</output>
		</layer>
		<layer id="110" name="/backbone/backbone.1/backbone.1.0/block/block.3/fc1/Conv" type="Add" version="opset1">
			<data auto_broadcast="numpy" />
			<input>
				<port id="0" precision="FP32">
					<dim>1</dim>
					<dim>8</dim>
					<dim>1</dim>
					<dim>1</dim>
				</port>
				<port id="1" precision="FP32">
					<dim>1</dim>
					<dim>8</dim>
					<dim>1</dim>
					<dim>1</dim>
				</port>
			</input>
			<output>
				<port id="2" precision="FP32" names="/backbone/backbone.1/backbone.1.0/block/block.3/fc1/Conv_output_0">
					<dim>1</dim>
					<dim>8</dim>
					<dim>1</dim>
					<dim>1</dim>
				</port>
			</output>
		</layer>
		<layer id="111" name="/backbone/backbone.1/backbone.1.0/block/block.3/activation/HardSwish" type="HSwish" version="opset4">
			<input>
				<port id="0" precision="FP32">
					<dim>1</dim>
					<dim>8</dim>
					<dim>1</dim>
					<dim>1</dim>
				</port>
			</input>
			<output>
				<port id="1" precision="FP32" names="/backbone/backbone.1/backbone.1.0/block/block.3/activation/HardSwish_output_0">
					<dim>1</dim>
					<dim>8</dim>
					<dim>1</dim>
					<dim>1</dim>
				</port>
			</output>
		</layer>
		<layer id="112" name="/backbone/backbone.1/backbone.1.0/block/block.3/activation/HardSwish/fq_output_0/input_low" type="Const" version="opset1">
			<data element_type="f32" shape="" offset="475536" size="4" />
			<output>
				<port id="0" precision="FP32" />
			</output>
		</layer>
		<layer id="113" name="/backbone/backbone.1/backbone.1.0/block/block.3/activation/HardSwish/fq_output_0/input_high" type="Const" version="opset1">
			<data element_type="f32" shape="" offset="475540" size="4" />
			<output>
				<port id="0" precision="FP32" />
			</output>
		</layer>
		<layer id="114" name="/backbone/backbone.1/backbone.1.0/block/block.3/activation/HardSwish/fq_output_0/output_low" type="Const" version="opset1">
			<data element_type="f32" shape="" offset="475536" size="4" />
			<output>
				<port id="0" precision="FP32" />
			</output>
		</layer>
		<layer id="115" name="/backbone/backbone.1/backbone.1.0/block/block.3/activation/HardSwish/fq_output_0/output_high" type="Const" version="opset1">
			<data element_type="f32" shape="" offset="475540" size="4" />
			<output>
				<port id="0" precision="FP32" />
			</output>
		</layer>
		<layer id="116" name="/backbone/backbone.1/backbone.1.0/block/block.3/activation/HardSwish/fq_output_0" type="FakeQuantize" version="opset1">
			<data levels="256" auto_broadcast="numpy" />
			<input>
				<port id="0" precision="FP32">
					<dim>1</dim>
					<dim>8</dim>
					<dim>1</dim>
					<dim>1</dim>
				</port>
				<port id="1" precision="FP32" />
				<port id="2" precision="FP32" />
				<port id="3" precision="FP32" />
				<port id="4" precision="FP32" />
			</input>
			<output>
				<port id="5" precision="FP32">
					<dim>1</dim>
					<dim>8</dim>
					<dim>1</dim>
					<dim>1</dim>
				</port>
			</output>
		</layer>
		<layer id="117" name="Constant_247871" type="Const" version="opset1">
			<data element_type="i8" shape="32, 8, 1, 1" offset="475544" size="256" />
			<output>
				<port id="0" precision="I8">
					<dim>32</dim>
					<dim>8</dim>
					<dim>1</dim>
					<dim>1</dim>
				</port>
			</output>
		</layer>
		<layer id="118" name="Convert_247872" type="Convert" version="opset1">
			<data destination_type="f32" />
			<input>
				<port id="0" precision="I8">
					<dim>32</dim>
					<dim>8</dim>
					<dim>1</dim>
					<dim>1</dim>
				</port>
			</input>
			<output>
				<port id="1" precision="FP32">
					<dim>32</dim>
					<dim>8</dim>
					<dim>1</dim>
					<dim>1</dim>
				</port>
			</output>
		</layer>
		<layer id="119" name="Constant_247873" type="Const" version="opset1">
			<data element_type="f32" shape="32, 1, 1, 1" offset="475800" size="128" />
			<output>
				<port id="0" precision="FP32">
					<dim>32</dim>
					<dim>1</dim>
					<dim>1</dim>
					<dim>1</dim>
				</port>
			</output>
		</layer>
		<layer id="120" name="/backbone/backbone.1/backbone.1.0/block/block.3/fc2/Conv/WithoutBiases/fq_weights_1" type="Multiply" version="opset1">
			<data auto_broadcast="numpy" />
			<input>
				<port id="0" precision="FP32">
					<dim>32</dim>
					<dim>8</dim>
					<dim>1</dim>
					<dim>1</dim>
				</port>
				<port id="1" precision="FP32">
					<dim>32</dim>
					<dim>1</dim>
					<dim>1</dim>
					<dim>1</dim>
				</port>
			</input>
			<output>
				<port id="2" precision="FP32">
					<dim>32</dim>
					<dim>8</dim>
					<dim>1</dim>
					<dim>1</dim>
				</port>
			</output>
		</layer>
		<layer id="121" name="/backbone/backbone.1/backbone.1.0/block/block.3/fc2/Conv/WithoutBiases" type="Convolution" version="opset1">
			<data strides="1, 1" dilations="1, 1" pads_begin="0, 0" pads_end="0, 0" auto_pad="explicit" />
			<input>
				<port id="0" precision="FP32">
					<dim>1</dim>
					<dim>8</dim>
					<dim>1</dim>
					<dim>1</dim>
				</port>
				<port id="1" precision="FP32">
					<dim>32</dim>
					<dim>8</dim>
					<dim>1</dim>
					<dim>1</dim>
				</port>
			</input>
			<output>
				<port id="2" precision="FP32">
					<dim>1</dim>
					<dim>32</dim>
					<dim>1</dim>
					<dim>1</dim>
				</port>
			</output>
		</layer>
		<layer id="122" name="Reshape_110" type="Const" version="opset1">
			<data element_type="f32" shape="1, 32, 1, 1" offset="475928" size="128" />
			<output>
				<port id="0" precision="FP32">
					<dim>1</dim>
					<dim>32</dim>
					<dim>1</dim>
					<dim>1</dim>
				</port>
			</output>
		</layer>
		<layer id="123" name="/backbone/backbone.1/backbone.1.0/block/block.3/fc2/Conv" type="Add" version="opset1">
			<data auto_broadcast="numpy" />
			<input>
				<port id="0" precision="FP32">
					<dim>1</dim>
					<dim>32</dim>
					<dim>1</dim>
					<dim>1</dim>
				</port>
				<port id="1" precision="FP32">
					<dim>1</dim>
					<dim>32</dim>
					<dim>1</dim>
					<dim>1</dim>
				</port>
			</input>
			<output>
				<port id="2" precision="FP32" names="/backbone/backbone.1/backbone.1.0/block/block.3/fc2/Conv_output_0">
					<dim>1</dim>
					<dim>32</dim>
					<dim>1</dim>
					<dim>1</dim>
				</port>
			</output>
		</layer>
		<layer id="124" name="/backbone/backbone.1/backbone.1.0/block/block.3/scale_activation/Sigmoid" type="Sigmoid" version="opset1">
			<input>
				<port id="0" precision="FP32">
					<dim>1</dim>
					<dim>32</dim>
					<dim>1</dim>
					<dim>1</dim>
				</port>
			</input>
			<output>
				<port id="1" precision="FP32" names="/backbone/backbone.1/backbone.1.0/block/block.3/scale_activation/Sigmoid_output_0">
					<dim>1</dim>
					<dim>32</dim>
					<dim>1</dim>
					<dim>1</dim>
				</port>
			</output>
		</layer>
		<layer id="125" name="Constant_9409" type="Const" version="opset1">
			<data element_type="f32" shape="1, 1, 1, 1" offset="0" size="4" />
			<output>
				<port id="0" precision="FP32">
					<dim>1</dim>
					<dim>1</dim>
					<dim>1</dim>
					<dim>1</dim>
				</port>
			</output>
		</layer>
		<layer id="126" name="Constant_9410" type="Const" version="opset1">
			<data element_type="f32" shape="1, 1, 1, 1" offset="476056" size="4" />
			<output>
				<port id="0" precision="FP32">
					<dim>1</dim>
					<dim>1</dim>
					<dim>1</dim>
					<dim>1</dim>
				</port>
			</output>
		</layer>
		<layer id="127" name="Constant_9411" type="Const" version="opset1">
			<data element_type="f32" shape="1, 1, 1, 1" offset="0" size="4" />
			<output>
				<port id="0" precision="FP32">
					<dim>1</dim>
					<dim>1</dim>
					<dim>1</dim>
					<dim>1</dim>
				</port>
			</output>
		</layer>
		<layer id="128" name="Constant_9412" type="Const" version="opset1">
			<data element_type="f32" shape="1, 1, 1, 1" offset="476056" size="4" />
			<output>
				<port id="0" precision="FP32">
					<dim>1</dim>
					<dim>1</dim>
					<dim>1</dim>
					<dim>1</dim>
				</port>
			</output>
		</layer>
		<layer id="129" name="/backbone/backbone.1/backbone.1.0/block/block.3/activation_post_process_3/DequantizeLinear" type="FakeQuantize" version="opset1">
			<data levels="256" auto_broadcast="numpy" />
			<input>
				<port id="0" precision="FP32">
					<dim>1</dim>
					<dim>32</dim>
					<dim>1</dim>
					<dim>1</dim>
				</port>
				<port id="1" precision="FP32">
					<dim>1</dim>
					<dim>1</dim>
					<dim>1</dim>
					<dim>1</dim>
				</port>
				<port id="2" precision="FP32">
					<dim>1</dim>
					<dim>1</dim>
					<dim>1</dim>
					<dim>1</dim>
				</port>
				<port id="3" precision="FP32">
					<dim>1</dim>
					<dim>1</dim>
					<dim>1</dim>
					<dim>1</dim>
				</port>
				<port id="4" precision="FP32">
					<dim>1</dim>
					<dim>1</dim>
					<dim>1</dim>
					<dim>1</dim>
				</port>
			</input>
			<output>
				<port id="5" precision="FP32" names="/backbone/backbone.1/backbone.1.0/block/block.3/activation_post_process_3/DequantizeLinear_output_0">
					<dim>1</dim>
					<dim>32</dim>
					<dim>1</dim>
					<dim>1</dim>
				</port>
			</output>
		</layer>
		<layer id="130" name="/backbone/backbone.1/backbone.1.0/block/block.3/activation_post_process_3/DequantizeLinear/fq_output_0/input_low" type="Const" version="opset1">
			<data element_type="f32" shape="" offset="0" size="4" />
			<output>
				<port id="0" precision="FP32" />
			</output>
		</layer>
		<layer id="131" name="/backbone/backbone.1/backbone.1.0/block/block.3/activation_post_process_3/DequantizeLinear/fq_output_0/input_high" type="Const" version="opset1">
			<data element_type="f32" shape="" offset="476060" size="4" />
			<output>
				<port id="0" precision="FP32" />
			</output>
		</layer>
		<layer id="132" name="/backbone/backbone.1/backbone.1.0/block/block.3/activation_post_process_3/DequantizeLinear/fq_output_0/output_low" type="Const" version="opset1">
			<data element_type="f32" shape="" offset="0" size="4" />
			<output>
				<port id="0" precision="FP32" />
			</output>
		</layer>
		<layer id="133" name="/backbone/backbone.1/backbone.1.0/block/block.3/activation_post_process_3/DequantizeLinear/fq_output_0/output_high" type="Const" version="opset1">
			<data element_type="f32" shape="" offset="476060" size="4" />
			<output>
				<port id="0" precision="FP32" />
			</output>
		</layer>
		<layer id="134" name="/backbone/backbone.1/backbone.1.0/block/block.3/activation_post_process_3/DequantizeLinear/fq_output_0" type="FakeQuantize" version="opset1">
			<data levels="256" auto_broadcast="numpy" />
			<input>
				<port id="0" precision="FP32">
					<dim>1</dim>
					<dim>32</dim>
					<dim>1</dim>
					<dim>1</dim>
				</port>
				<port id="1" precision="FP32" />
				<port id="2" precision="FP32" />
				<port id="3" precision="FP32" />
				<port id="4" precision="FP32" />
			</input>
			<output>
				<port id="5" precision="FP32">
					<dim>1</dim>
					<dim>32</dim>
					<dim>1</dim>
					<dim>1</dim>
				</port>
			</output>
		</layer>
		<layer id="135" name="/backbone/backbone.1/backbone.1.0/block/block.3/Mul" type="Multiply" version="opset1">
			<data auto_broadcast="numpy" />
			<input>
				<port id="0" precision="FP32">
					<dim>1</dim>
					<dim>32</dim>
					<dim>112</dim>
					<dim>112</dim>
				</port>
				<port id="1" precision="FP32">
					<dim>1</dim>
					<dim>32</dim>
					<dim>1</dim>
					<dim>1</dim>
				</port>
			</input>
			<output>
				<port id="2" precision="FP32" names="/backbone/backbone.1/backbone.1.0/block/block.3/Mul_output_0">
					<dim>1</dim>
					<dim>32</dim>
					<dim>112</dim>
					<dim>112</dim>
				</port>
			</output>
		</layer>
		<layer id="136" name="/backbone/backbone.1/backbone.1.0/block/block.3/Mul/fq_output_0/input_low" type="Const" version="opset1">
			<data element_type="f32" shape="" offset="476064" size="4" />
			<output>
				<port id="0" precision="FP32" />
			</output>
		</layer>
		<layer id="137" name="/backbone/backbone.1/backbone.1.0/block/block.3/Mul/fq_output_0/input_high" type="Const" version="opset1">
			<data element_type="f32" shape="" offset="476068" size="4" />
			<output>
				<port id="0" precision="FP32" />
			</output>
		</layer>
		<layer id="138" name="/backbone/backbone.1/backbone.1.0/block/block.3/Mul/fq_output_0/output_low" type="Const" version="opset1">
			<data element_type="f32" shape="" offset="476064" size="4" />
			<output>
				<port id="0" precision="FP32" />
			</output>
		</layer>
		<layer id="139" name="/backbone/backbone.1/backbone.1.0/block/block.3/Mul/fq_output_0/output_high" type="Const" version="opset1">
			<data element_type="f32" shape="" offset="476068" size="4" />
			<output>
				<port id="0" precision="FP32" />
			</output>
		</layer>
		<layer id="140" name="/backbone/backbone.1/backbone.1.0/block/block.3/Mul/fq_output_0" type="FakeQuantize" version="opset1">
			<data levels="256" auto_broadcast="numpy" />
			<input>
				<port id="0" precision="FP32">
					<dim>1</dim>
					<dim>32</dim>
					<dim>112</dim>
					<dim>112</dim>
				</port>
				<port id="1" precision="FP32" />
				<port id="2" precision="FP32" />
				<port id="3" precision="FP32" />
				<port id="4" precision="FP32" />
			</input>
			<output>
				<port id="5" precision="FP32">
					<dim>1</dim>
					<dim>32</dim>
					<dim>112</dim>
					<dim>112</dim>
				</port>
			</output>
		</layer>
		<layer id="141" name="Constant_247875" type="Const" version="opset1">
			<data element_type="i8" shape="16, 32, 1, 1" offset="476072" size="512" />
			<output>
				<port id="0" precision="I8">
					<dim>16</dim>
					<dim>32</dim>
					<dim>1</dim>
					<dim>1</dim>
				</port>
			</output>
		</layer>
		<layer id="142" name="Convert_247876" type="Convert" version="opset1">
			<data destination_type="f32" />
			<input>
				<port id="0" precision="I8">
					<dim>16</dim>
					<dim>32</dim>
					<dim>1</dim>
					<dim>1</dim>
				</port>
			</input>
			<output>
				<port id="1" precision="FP32">
					<dim>16</dim>
					<dim>32</dim>
					<dim>1</dim>
					<dim>1</dim>
				</port>
			</output>
		</layer>
		<layer id="143" name="Constant_247877" type="Const" version="opset1">
			<data element_type="f32" shape="16, 1, 1, 1" offset="476584" size="64" />
			<output>
				<port id="0" precision="FP32">
					<dim>16</dim>
					<dim>1</dim>
					<dim>1</dim>
					<dim>1</dim>
				</port>
			</output>
		</layer>
		<layer id="144" name="Multiply_8758/fq_weights_1" type="Multiply" version="opset1">
			<data auto_broadcast="numpy" />
			<input>
				<port id="0" precision="FP32">
					<dim>16</dim>
					<dim>32</dim>
					<dim>1</dim>
					<dim>1</dim>
				</port>
				<port id="1" precision="FP32">
					<dim>16</dim>
					<dim>1</dim>
					<dim>1</dim>
					<dim>1</dim>
				</port>
			</input>
			<output>
				<port id="2" precision="FP32">
					<dim>16</dim>
					<dim>32</dim>
					<dim>1</dim>
					<dim>1</dim>
				</port>
			</output>
		</layer>
		<layer id="145" name="Multiply_8758" type="Convolution" version="opset1">
			<data strides="1, 1" dilations="1, 1" pads_begin="0, 0" pads_end="0, 0" auto_pad="explicit" />
			<input>
				<port id="0" precision="FP32">
					<dim>1</dim>
					<dim>32</dim>
					<dim>112</dim>
					<dim>112</dim>
				</port>
				<port id="1" precision="FP32">
					<dim>16</dim>
					<dim>32</dim>
					<dim>1</dim>
					<dim>1</dim>
				</port>
			</input>
			<output>
				<port id="2" precision="FP32" names="/backbone/backbone.1/backbone.1.0/block/block.5/BatchNormalization_output_0">
					<dim>1</dim>
					<dim>16</dim>
					<dim>112</dim>
					<dim>112</dim>
				</port>
			</output>
		</layer>
		<layer id="146" name="Multiply_8758/fq_output_0/input_low" type="Const" version="opset1">
			<data element_type="f32" shape="" offset="476648" size="4" />
			<output>
				<port id="0" precision="FP32" />
			</output>
		</layer>
		<layer id="147" name="Multiply_8758/fq_output_0/input_high" type="Const" version="opset1">
			<data element_type="f32" shape="" offset="476652" size="4" />
			<output>
				<port id="0" precision="FP32" />
			</output>
		</layer>
		<layer id="148" name="Multiply_8758/fq_output_0/output_low" type="Const" version="opset1">
			<data element_type="f32" shape="" offset="476648" size="4" />
			<output>
				<port id="0" precision="FP32" />
			</output>
		</layer>
		<layer id="149" name="Multiply_8758/fq_output_0/output_high" type="Const" version="opset1">
			<data element_type="f32" shape="" offset="476652" size="4" />
			<output>
				<port id="0" precision="FP32" />
			</output>
		</layer>
		<layer id="150" name="Multiply_8758/fq_output_0" type="FakeQuantize" version="opset1">
			<data levels="256" auto_broadcast="numpy" />
			<input>
				<port id="0" precision="FP32">
					<dim>1</dim>
					<dim>16</dim>
					<dim>112</dim>
					<dim>112</dim>
				</port>
				<port id="1" precision="FP32" />
				<port id="2" precision="FP32" />
				<port id="3" precision="FP32" />
				<port id="4" precision="FP32" />
			</input>
			<output>
				<port id="5" precision="FP32">
					<dim>1</dim>
					<dim>16</dim>
					<dim>112</dim>
					<dim>112</dim>
				</port>
			</output>
		</layer>
		<layer id="151" name="Constant_247879" type="Const" version="opset1">
			<data element_type="i8" shape="96, 16, 1, 1" offset="476656" size="1536" />
			<output>
				<port id="0" precision="I8">
					<dim>96</dim>
					<dim>16</dim>
					<dim>1</dim>
					<dim>1</dim>
				</port>
			</output>
		</layer>
		<layer id="152" name="Convert_247880" type="Convert" version="opset1">
			<data destination_type="f32" />
			<input>
				<port id="0" precision="I8">
					<dim>96</dim>
					<dim>16</dim>
					<dim>1</dim>
					<dim>1</dim>
				</port>
			</input>
			<output>
				<port id="1" precision="FP32">
					<dim>96</dim>
					<dim>16</dim>
					<dim>1</dim>
					<dim>1</dim>
				</port>
			</output>
		</layer>
		<layer id="153" name="Constant_247881" type="Const" version="opset1">
			<data element_type="f32" shape="96, 1, 1, 1" offset="478192" size="384" />
			<output>
				<port id="0" precision="FP32">
					<dim>96</dim>
					<dim>1</dim>
					<dim>1</dim>
					<dim>1</dim>
				</port>
			</output>
		</layer>
		<layer id="154" name="Multiply_8765/fq_weights_1" type="Multiply" version="opset1">
			<data auto_broadcast="numpy" />
			<input>
				<port id="0" precision="FP32">
					<dim>96</dim>
					<dim>16</dim>
					<dim>1</dim>
					<dim>1</dim>
				</port>
				<port id="1" precision="FP32">
					<dim>96</dim>
					<dim>1</dim>
					<dim>1</dim>
					<dim>1</dim>
				</port>
			</input>
			<output>
				<port id="2" precision="FP32">
					<dim>96</dim>
					<dim>16</dim>
					<dim>1</dim>
					<dim>1</dim>
				</port>
			</output>
		</layer>
		<layer id="155" name="Multiply_8765" type="Convolution" version="opset1">
			<data strides="1, 1" dilations="1, 1" pads_begin="0, 0" pads_end="0, 0" auto_pad="explicit" />
			<input>
				<port id="0" precision="FP32">
					<dim>1</dim>
					<dim>16</dim>
					<dim>112</dim>
					<dim>112</dim>
				</port>
				<port id="1" precision="FP32">
					<dim>96</dim>
					<dim>16</dim>
					<dim>1</dim>
					<dim>1</dim>
				</port>
			</input>
			<output>
				<port id="2" precision="FP32" names="/backbone/backbone.2/backbone.2.0/block/block.1/BatchNormalization_output_0">
					<dim>1</dim>
					<dim>96</dim>
					<dim>112</dim>
					<dim>112</dim>
				</port>
			</output>
		</layer>
		<layer id="156" name="/backbone/backbone.2/backbone.2.0/block/block.2/HardSwish" type="HSwish" version="opset4">
			<input>
				<port id="0" precision="FP32">
					<dim>1</dim>
					<dim>96</dim>
					<dim>112</dim>
					<dim>112</dim>
				</port>
			</input>
			<output>
				<port id="1" precision="FP32" names="/backbone/backbone.2/backbone.2.0/block/block.2/HardSwish_output_0">
					<dim>1</dim>
					<dim>96</dim>
					<dim>112</dim>
					<dim>112</dim>
				</port>
			</output>
		</layer>
		<layer id="157" name="/backbone/backbone.2/backbone.2.0/block/block.2/HardSwish/fq_output_0/input_low" type="Const" version="opset1">
			<data element_type="f32" shape="1, 96, 1, 1" offset="478576" size="384" />
			<output>
				<port id="0" precision="FP32">
					<dim>1</dim>
					<dim>96</dim>
					<dim>1</dim>
					<dim>1</dim>
				</port>
			</output>
		</layer>
		<layer id="158" name="/backbone/backbone.2/backbone.2.0/block/block.2/HardSwish/fq_output_0/input_high" type="Const" version="opset1">
			<data element_type="f32" shape="1, 96, 1, 1" offset="478960" size="384" />
			<output>
				<port id="0" precision="FP32">
					<dim>1</dim>
					<dim>96</dim>
					<dim>1</dim>
					<dim>1</dim>
				</port>
			</output>
		</layer>
		<layer id="159" name="/backbone/backbone.2/backbone.2.0/block/block.2/HardSwish/fq_output_0/output_low" type="Const" version="opset1">
			<data element_type="f32" shape="1, 96, 1, 1" offset="478576" size="384" />
			<output>
				<port id="0" precision="FP32">
					<dim>1</dim>
					<dim>96</dim>
					<dim>1</dim>
					<dim>1</dim>
				</port>
			</output>
		</layer>
		<layer id="160" name="/backbone/backbone.2/backbone.2.0/block/block.2/HardSwish/fq_output_0/output_high" type="Const" version="opset1">
			<data element_type="f32" shape="1, 96, 1, 1" offset="478960" size="384" />
			<output>
				<port id="0" precision="FP32">
					<dim>1</dim>
					<dim>96</dim>
					<dim>1</dim>
					<dim>1</dim>
				</port>
			</output>
		</layer>
		<layer id="161" name="/backbone/backbone.2/backbone.2.0/block/block.2/HardSwish/fq_output_0" type="FakeQuantize" version="opset1">
			<data levels="256" auto_broadcast="numpy" />
			<input>
				<port id="0" precision="FP32">
					<dim>1</dim>
					<dim>96</dim>
					<dim>112</dim>
					<dim>112</dim>
				</port>
				<port id="1" precision="FP32">
					<dim>1</dim>
					<dim>96</dim>
					<dim>1</dim>
					<dim>1</dim>
				</port>
				<port id="2" precision="FP32">
					<dim>1</dim>
					<dim>96</dim>
					<dim>1</dim>
					<dim>1</dim>
				</port>
				<port id="3" precision="FP32">
					<dim>1</dim>
					<dim>96</dim>
					<dim>1</dim>
					<dim>1</dim>
				</port>
				<port id="4" precision="FP32">
					<dim>1</dim>
					<dim>96</dim>
					<dim>1</dim>
					<dim>1</dim>
				</port>
			</input>
			<output>
				<port id="5" precision="FP32">
					<dim>1</dim>
					<dim>96</dim>
					<dim>112</dim>
					<dim>112</dim>
				</port>
			</output>
		</layer>
		<layer id="162" name="Constant_247883" type="Const" version="opset1">
			<data element_type="i8" shape="96, 1, 1, 3, 3" offset="479344" size="864" />
			<output>
				<port id="0" precision="I8">
					<dim>96</dim>
					<dim>1</dim>
					<dim>1</dim>
					<dim>3</dim>
					<dim>3</dim>
				</port>
			</output>
		</layer>
		<layer id="163" name="Convert_247884" type="Convert" version="opset1">
			<data destination_type="f32" />
			<input>
				<port id="0" precision="I8">
					<dim>96</dim>
					<dim>1</dim>
					<dim>1</dim>
					<dim>3</dim>
					<dim>3</dim>
				</port>
			</input>
			<output>
				<port id="1" precision="FP32">
					<dim>96</dim>
					<dim>1</dim>
					<dim>1</dim>
					<dim>3</dim>
					<dim>3</dim>
				</port>
			</output>
		</layer>
		<layer id="164" name="Constant_247885" type="Const" version="opset1">
			<data element_type="f32" shape="96, 1, 1, 1, 1" offset="480208" size="384" />
			<output>
				<port id="0" precision="FP32">
					<dim>96</dim>
					<dim>1</dim>
					<dim>1</dim>
					<dim>1</dim>
					<dim>1</dim>
				</port>
			</output>
		</layer>
		<layer id="165" name="Multiply_8772/fq_weights_1" type="Multiply" version="opset1">
			<data auto_broadcast="numpy" />
			<input>
				<port id="0" precision="FP32">
					<dim>96</dim>
					<dim>1</dim>
					<dim>1</dim>
					<dim>3</dim>
					<dim>3</dim>
				</port>
				<port id="1" precision="FP32">
					<dim>96</dim>
					<dim>1</dim>
					<dim>1</dim>
					<dim>1</dim>
					<dim>1</dim>
				</port>
			</input>
			<output>
				<port id="2" precision="FP32">
					<dim>96</dim>
					<dim>1</dim>
					<dim>1</dim>
					<dim>3</dim>
					<dim>3</dim>
				</port>
			</output>
		</layer>
		<layer id="166" name="Multiply_8772" type="GroupConvolution" version="opset1">
			<data strides="2, 2" pads_begin="1, 1" pads_end="1, 1" dilations="1, 1" auto_pad="explicit" />
			<input>
				<port id="0" precision="FP32">
					<dim>1</dim>
					<dim>96</dim>
					<dim>112</dim>
					<dim>112</dim>
				</port>
				<port id="1" precision="FP32">
					<dim>96</dim>
					<dim>1</dim>
					<dim>1</dim>
					<dim>3</dim>
					<dim>3</dim>
				</port>
			</input>
			<output>
				<port id="2" precision="FP32" names="/backbone/backbone.2/backbone.2.0/block/block.3/Conv_output_0,/backbone/backbone.2/backbone.2.0/block/block.4/BatchNormalization_output_0">
					<dim>1</dim>
					<dim>96</dim>
					<dim>56</dim>
					<dim>56</dim>
				</port>
			</output>
		</layer>
		<layer id="167" name="/backbone/backbone.2/backbone.2.0/block/block.5/HardSwish" type="HSwish" version="opset4">
			<input>
				<port id="0" precision="FP32">
					<dim>1</dim>
					<dim>96</dim>
					<dim>56</dim>
					<dim>56</dim>
				</port>
			</input>
			<output>
				<port id="1" precision="FP32" names="/backbone/backbone.2/backbone.2.0/block/block.5/HardSwish_output_0">
					<dim>1</dim>
					<dim>96</dim>
					<dim>56</dim>
					<dim>56</dim>
				</port>
			</output>
		</layer>
		<layer id="168" name="/backbone/backbone.2/backbone.2.0/block/block.5/HardSwish/fq_output_0/input_low" type="Const" version="opset1">
			<data element_type="f32" shape="" offset="480592" size="4" />
			<output>
				<port id="0" precision="FP32" />
			</output>
		</layer>
		<layer id="169" name="/backbone/backbone.2/backbone.2.0/block/block.5/HardSwish/fq_output_0/input_high" type="Const" version="opset1">
			<data element_type="f32" shape="" offset="480596" size="4" />
			<output>
				<port id="0" precision="FP32" />
			</output>
		</layer>
		<layer id="170" name="/backbone/backbone.2/backbone.2.0/block/block.5/HardSwish/fq_output_0/output_low" type="Const" version="opset1">
			<data element_type="f32" shape="" offset="480592" size="4" />
			<output>
				<port id="0" precision="FP32" />
			</output>
		</layer>
		<layer id="171" name="/backbone/backbone.2/backbone.2.0/block/block.5/HardSwish/fq_output_0/output_high" type="Const" version="opset1">
			<data element_type="f32" shape="" offset="480596" size="4" />
			<output>
				<port id="0" precision="FP32" />
			</output>
		</layer>
		<layer id="172" name="/backbone/backbone.2/backbone.2.0/block/block.5/HardSwish/fq_output_0" type="FakeQuantize" version="opset1">
			<data levels="256" auto_broadcast="numpy" />
			<input>
				<port id="0" precision="FP32">
					<dim>1</dim>
					<dim>96</dim>
					<dim>56</dim>
					<dim>56</dim>
				</port>
				<port id="1" precision="FP32" />
				<port id="2" precision="FP32" />
				<port id="3" precision="FP32" />
				<port id="4" precision="FP32" />
			</input>
			<output>
				<port id="5" precision="FP32">
					<dim>1</dim>
					<dim>96</dim>
					<dim>56</dim>
					<dim>56</dim>
				</port>
			</output>
		</layer>
		<layer id="173" name="Range_202" type="Const" version="opset1">
			<data element_type="i64" shape="2" offset="19536" size="16" />
			<output>
				<port id="0" precision="I64">
					<dim>2</dim>
				</port>
			</output>
		</layer>
		<layer id="174" name="/backbone/backbone.2/backbone.2.0/block/block.6/avgpool/GlobalAveragePool" type="ReduceMean" version="opset1">
			<data keep_dims="true" />
			<input>
				<port id="0" precision="FP32">
					<dim>1</dim>
					<dim>96</dim>
					<dim>56</dim>
					<dim>56</dim>
				</port>
				<port id="1" precision="I64">
					<dim>2</dim>
				</port>
			</input>
			<output>
				<port id="2" precision="FP32" names="/backbone/backbone.2/backbone.2.0/block/block.6/avgpool/GlobalAveragePool_output_0">
					<dim>1</dim>
					<dim>96</dim>
					<dim>1</dim>
					<dim>1</dim>
				</port>
			</output>
		</layer>
		<layer id="175" name="/backbone/backbone.2/backbone.2.0/block/block.6/avgpool/GlobalAveragePool/fq_output_0/input_low" type="Const" version="opset1">
			<data element_type="f32" shape="" offset="480600" size="4" />
			<output>
				<port id="0" precision="FP32" />
			</output>
		</layer>
		<layer id="176" name="/backbone/backbone.2/backbone.2.0/block/block.6/avgpool/GlobalAveragePool/fq_output_0/input_high" type="Const" version="opset1">
			<data element_type="f32" shape="" offset="480604" size="4" />
			<output>
				<port id="0" precision="FP32" />
			</output>
		</layer>
		<layer id="177" name="/backbone/backbone.2/backbone.2.0/block/block.6/avgpool/GlobalAveragePool/fq_output_0/output_low" type="Const" version="opset1">
			<data element_type="f32" shape="" offset="480600" size="4" />
			<output>
				<port id="0" precision="FP32" />
			</output>
		</layer>
		<layer id="178" name="/backbone/backbone.2/backbone.2.0/block/block.6/avgpool/GlobalAveragePool/fq_output_0/output_high" type="Const" version="opset1">
			<data element_type="f32" shape="" offset="480604" size="4" />
			<output>
				<port id="0" precision="FP32" />
			</output>
		</layer>
		<layer id="179" name="/backbone/backbone.2/backbone.2.0/block/block.6/avgpool/GlobalAveragePool/fq_output_0" type="FakeQuantize" version="opset1">
			<data levels="256" auto_broadcast="numpy" />
			<input>
				<port id="0" precision="FP32">
					<dim>1</dim>
					<dim>96</dim>
					<dim>1</dim>
					<dim>1</dim>
				</port>
				<port id="1" precision="FP32" />
				<port id="2" precision="FP32" />
				<port id="3" precision="FP32" />
				<port id="4" precision="FP32" />
			</input>
			<output>
				<port id="5" precision="FP32">
					<dim>1</dim>
					<dim>96</dim>
					<dim>1</dim>
					<dim>1</dim>
				</port>
			</output>
		</layer>
		<layer id="180" name="Constant_247887" type="Const" version="opset1">
			<data element_type="i8" shape="4, 96, 1, 1" offset="480608" size="384" />
			<output>
				<port id="0" precision="I8">
					<dim>4</dim>
					<dim>96</dim>
					<dim>1</dim>
					<dim>1</dim>
				</port>
			</output>
		</layer>
		<layer id="181" name="Convert_247888" type="Convert" version="opset1">
			<data destination_type="f32" />
			<input>
				<port id="0" precision="I8">
					<dim>4</dim>
					<dim>96</dim>
					<dim>1</dim>
					<dim>1</dim>
				</port>
			</input>
			<output>
				<port id="1" precision="FP32">
					<dim>4</dim>
					<dim>96</dim>
					<dim>1</dim>
					<dim>1</dim>
				</port>
			</output>
		</layer>
		<layer id="182" name="Constant_247889" type="Const" version="opset1">
			<data element_type="f32" shape="4, 1, 1, 1" offset="480992" size="16" />
			<output>
				<port id="0" precision="FP32">
					<dim>4</dim>
					<dim>1</dim>
					<dim>1</dim>
					<dim>1</dim>
				</port>
			</output>
		</layer>
		<layer id="183" name="/backbone/backbone.2/backbone.2.0/block/block.6/fc1/Conv/WithoutBiases/fq_weights_1" type="Multiply" version="opset1">
			<data auto_broadcast="numpy" />
			<input>
				<port id="0" precision="FP32">
					<dim>4</dim>
					<dim>96</dim>
					<dim>1</dim>
					<dim>1</dim>
				</port>
				<port id="1" precision="FP32">
					<dim>4</dim>
					<dim>1</dim>
					<dim>1</dim>
					<dim>1</dim>
				</port>
			</input>
			<output>
				<port id="2" precision="FP32">
					<dim>4</dim>
					<dim>96</dim>
					<dim>1</dim>
					<dim>1</dim>
				</port>
			</output>
		</layer>
		<layer id="184" name="/backbone/backbone.2/backbone.2.0/block/block.6/fc1/Conv/WithoutBiases" type="Convolution" version="opset1">
			<data strides="1, 1" dilations="1, 1" pads_begin="0, 0" pads_end="0, 0" auto_pad="explicit" />
			<input>
				<port id="0" precision="FP32">
					<dim>1</dim>
					<dim>96</dim>
					<dim>1</dim>
					<dim>1</dim>
				</port>
				<port id="1" precision="FP32">
					<dim>4</dim>
					<dim>96</dim>
					<dim>1</dim>
					<dim>1</dim>
				</port>
			</input>
			<output>
				<port id="2" precision="FP32">
					<dim>1</dim>
					<dim>4</dim>
					<dim>1</dim>
					<dim>1</dim>
				</port>
			</output>
		</layer>
		<layer id="185" name="Reshape_219" type="Const" version="opset1">
			<data element_type="f32" shape="1, 4, 1, 1" offset="481008" size="16" />
			<output>
				<port id="0" precision="FP32">
					<dim>1</dim>
					<dim>4</dim>
					<dim>1</dim>
					<dim>1</dim>
				</port>
			</output>
		</layer>
		<layer id="186" name="/backbone/backbone.2/backbone.2.0/block/block.6/fc1/Conv" type="Add" version="opset1">
			<data auto_broadcast="numpy" />
			<input>
				<port id="0" precision="FP32">
					<dim>1</dim>
					<dim>4</dim>
					<dim>1</dim>
					<dim>1</dim>
				</port>
				<port id="1" precision="FP32">
					<dim>1</dim>
					<dim>4</dim>
					<dim>1</dim>
					<dim>1</dim>
				</port>
			</input>
			<output>
				<port id="2" precision="FP32" names="/backbone/backbone.2/backbone.2.0/block/block.6/fc1/Conv_output_0">
					<dim>1</dim>
					<dim>4</dim>
					<dim>1</dim>
					<dim>1</dim>
				</port>
			</output>
		</layer>
		<layer id="187" name="/backbone/backbone.2/backbone.2.0/block/block.6/activation/HardSwish" type="HSwish" version="opset4">
			<input>
				<port id="0" precision="FP32">
					<dim>1</dim>
					<dim>4</dim>
					<dim>1</dim>
					<dim>1</dim>
				</port>
			</input>
			<output>
				<port id="1" precision="FP32" names="/backbone/backbone.2/backbone.2.0/block/block.6/activation/HardSwish_output_0">
					<dim>1</dim>
					<dim>4</dim>
					<dim>1</dim>
					<dim>1</dim>
				</port>
			</output>
		</layer>
		<layer id="188" name="/backbone/backbone.2/backbone.2.0/block/block.6/activation/HardSwish/fq_output_0/input_low" type="Const" version="opset1">
			<data element_type="f32" shape="" offset="481024" size="4" />
			<output>
				<port id="0" precision="FP32" />
			</output>
		</layer>
		<layer id="189" name="/backbone/backbone.2/backbone.2.0/block/block.6/activation/HardSwish/fq_output_0/input_high" type="Const" version="opset1">
			<data element_type="f32" shape="" offset="481028" size="4" />
			<output>
				<port id="0" precision="FP32" />
			</output>
		</layer>
		<layer id="190" name="/backbone/backbone.2/backbone.2.0/block/block.6/activation/HardSwish/fq_output_0/output_low" type="Const" version="opset1">
			<data element_type="f32" shape="" offset="481024" size="4" />
			<output>
				<port id="0" precision="FP32" />
			</output>
		</layer>
		<layer id="191" name="/backbone/backbone.2/backbone.2.0/block/block.6/activation/HardSwish/fq_output_0/output_high" type="Const" version="opset1">
			<data element_type="f32" shape="" offset="481028" size="4" />
			<output>
				<port id="0" precision="FP32" />
			</output>
		</layer>
		<layer id="192" name="/backbone/backbone.2/backbone.2.0/block/block.6/activation/HardSwish/fq_output_0" type="FakeQuantize" version="opset1">
			<data levels="256" auto_broadcast="numpy" />
			<input>
				<port id="0" precision="FP32">
					<dim>1</dim>
					<dim>4</dim>
					<dim>1</dim>
					<dim>1</dim>
				</port>
				<port id="1" precision="FP32" />
				<port id="2" precision="FP32" />
				<port id="3" precision="FP32" />
				<port id="4" precision="FP32" />
			</input>
			<output>
				<port id="5" precision="FP32">
					<dim>1</dim>
					<dim>4</dim>
					<dim>1</dim>
					<dim>1</dim>
				</port>
			</output>
		</layer>
		<layer id="193" name="Constant_247891" type="Const" version="opset1">
			<data element_type="i8" shape="96, 4, 1, 1" offset="481032" size="384" />
			<output>
				<port id="0" precision="I8">
					<dim>96</dim>
					<dim>4</dim>
					<dim>1</dim>
					<dim>1</dim>
				</port>
			</output>
		</layer>
		<layer id="194" name="Convert_247892" type="Convert" version="opset1">
			<data destination_type="f32" />
			<input>
				<port id="0" precision="I8">
					<dim>96</dim>
					<dim>4</dim>
					<dim>1</dim>
					<dim>1</dim>
				</port>
			</input>
			<output>
				<port id="1" precision="FP32">
					<dim>96</dim>
					<dim>4</dim>
					<dim>1</dim>
					<dim>1</dim>
				</port>
			</output>
		</layer>
		<layer id="195" name="Constant_247893" type="Const" version="opset1">
			<data element_type="f32" shape="96, 1, 1, 1" offset="481416" size="384" />
			<output>
				<port id="0" precision="FP32">
					<dim>96</dim>
					<dim>1</dim>
					<dim>1</dim>
					<dim>1</dim>
				</port>
			</output>
		</layer>
		<layer id="196" name="/backbone/backbone.2/backbone.2.0/block/block.6/fc2/Conv/WithoutBiases/fq_weights_1" type="Multiply" version="opset1">
			<data auto_broadcast="numpy" />
			<input>
				<port id="0" precision="FP32">
					<dim>96</dim>
					<dim>4</dim>
					<dim>1</dim>
					<dim>1</dim>
				</port>
				<port id="1" precision="FP32">
					<dim>96</dim>
					<dim>1</dim>
					<dim>1</dim>
					<dim>1</dim>
				</port>
			</input>
			<output>
				<port id="2" precision="FP32">
					<dim>96</dim>
					<dim>4</dim>
					<dim>1</dim>
					<dim>1</dim>
				</port>
			</output>
		</layer>
		<layer id="197" name="/backbone/backbone.2/backbone.2.0/block/block.6/fc2/Conv/WithoutBiases" type="Convolution" version="opset1">
			<data strides="1, 1" dilations="1, 1" pads_begin="0, 0" pads_end="0, 0" auto_pad="explicit" />
			<input>
				<port id="0" precision="FP32">
					<dim>1</dim>
					<dim>4</dim>
					<dim>1</dim>
					<dim>1</dim>
				</port>
				<port id="1" precision="FP32">
					<dim>96</dim>
					<dim>4</dim>
					<dim>1</dim>
					<dim>1</dim>
				</port>
			</input>
			<output>
				<port id="2" precision="FP32">
					<dim>1</dim>
					<dim>96</dim>
					<dim>1</dim>
					<dim>1</dim>
				</port>
			</output>
		</layer>
		<layer id="198" name="Reshape_235" type="Const" version="opset1">
			<data element_type="f32" shape="1, 96, 1, 1" offset="481800" size="384" />
			<output>
				<port id="0" precision="FP32">
					<dim>1</dim>
					<dim>96</dim>
					<dim>1</dim>
					<dim>1</dim>
				</port>
			</output>
		</layer>
		<layer id="199" name="/backbone/backbone.2/backbone.2.0/block/block.6/fc2/Conv" type="Add" version="opset1">
			<data auto_broadcast="numpy" />
			<input>
				<port id="0" precision="FP32">
					<dim>1</dim>
					<dim>96</dim>
					<dim>1</dim>
					<dim>1</dim>
				</port>
				<port id="1" precision="FP32">
					<dim>1</dim>
					<dim>96</dim>
					<dim>1</dim>
					<dim>1</dim>
				</port>
			</input>
			<output>
				<port id="2" precision="FP32" names="/backbone/backbone.2/backbone.2.0/block/block.6/fc2/Conv_output_0">
					<dim>1</dim>
					<dim>96</dim>
					<dim>1</dim>
					<dim>1</dim>
				</port>
			</output>
		</layer>
		<layer id="200" name="/backbone/backbone.2/backbone.2.0/block/block.6/scale_activation/Sigmoid" type="Sigmoid" version="opset1">
			<input>
				<port id="0" precision="FP32">
					<dim>1</dim>
					<dim>96</dim>
					<dim>1</dim>
					<dim>1</dim>
				</port>
			</input>
			<output>
				<port id="1" precision="FP32" names="/backbone/backbone.2/backbone.2.0/block/block.6/scale_activation/Sigmoid_output_0">
					<dim>1</dim>
					<dim>96</dim>
					<dim>1</dim>
					<dim>1</dim>
				</port>
			</output>
		</layer>
		<layer id="201" name="Constant_9413" type="Const" version="opset1">
			<data element_type="f32" shape="1, 1, 1, 1" offset="0" size="4" />
			<output>
				<port id="0" precision="FP32">
					<dim>1</dim>
					<dim>1</dim>
					<dim>1</dim>
					<dim>1</dim>
				</port>
			</output>
		</layer>
		<layer id="202" name="Constant_9414" type="Const" version="opset1">
			<data element_type="f32" shape="1, 1, 1, 1" offset="476056" size="4" />
			<output>
				<port id="0" precision="FP32">
					<dim>1</dim>
					<dim>1</dim>
					<dim>1</dim>
					<dim>1</dim>
				</port>
			</output>
		</layer>
		<layer id="203" name="Constant_9415" type="Const" version="opset1">
			<data element_type="f32" shape="1, 1, 1, 1" offset="0" size="4" />
			<output>
				<port id="0" precision="FP32">
					<dim>1</dim>
					<dim>1</dim>
					<dim>1</dim>
					<dim>1</dim>
				</port>
			</output>
		</layer>
		<layer id="204" name="Constant_9416" type="Const" version="opset1">
			<data element_type="f32" shape="1, 1, 1, 1" offset="476056" size="4" />
			<output>
				<port id="0" precision="FP32">
					<dim>1</dim>
					<dim>1</dim>
					<dim>1</dim>
					<dim>1</dim>
				</port>
			</output>
		</layer>
		<layer id="205" name="/backbone/backbone.2/backbone.2.0/block/block.6/activation_post_process_3/DequantizeLinear" type="FakeQuantize" version="opset1">
			<data levels="256" auto_broadcast="numpy" />
			<input>
				<port id="0" precision="FP32">
					<dim>1</dim>
					<dim>96</dim>
					<dim>1</dim>
					<dim>1</dim>
				</port>
				<port id="1" precision="FP32">
					<dim>1</dim>
					<dim>1</dim>
					<dim>1</dim>
					<dim>1</dim>
				</port>
				<port id="2" precision="FP32">
					<dim>1</dim>
					<dim>1</dim>
					<dim>1</dim>
					<dim>1</dim>
				</port>
				<port id="3" precision="FP32">
					<dim>1</dim>
					<dim>1</dim>
					<dim>1</dim>
					<dim>1</dim>
				</port>
				<port id="4" precision="FP32">
					<dim>1</dim>
					<dim>1</dim>
					<dim>1</dim>
					<dim>1</dim>
				</port>
			</input>
			<output>
				<port id="5" precision="FP32" names="/backbone/backbone.2/backbone.2.0/block/block.6/activation_post_process_3/DequantizeLinear_output_0">
					<dim>1</dim>
					<dim>96</dim>
					<dim>1</dim>
					<dim>1</dim>
				</port>
			</output>
		</layer>
		<layer id="206" name="/backbone/backbone.2/backbone.2.0/block/block.6/activation_post_process_3/DequantizeLinear/fq_output_0/input_low" type="Const" version="opset1">
			<data element_type="f32" shape="" offset="0" size="4" />
			<output>
				<port id="0" precision="FP32" />
			</output>
		</layer>
		<layer id="207" name="/backbone/backbone.2/backbone.2.0/block/block.6/activation_post_process_3/DequantizeLinear/fq_output_0/input_high" type="Const" version="opset1">
			<data element_type="f32" shape="" offset="482184" size="4" />
			<output>
				<port id="0" precision="FP32" />
			</output>
		</layer>
		<layer id="208" name="/backbone/backbone.2/backbone.2.0/block/block.6/activation_post_process_3/DequantizeLinear/fq_output_0/output_low" type="Const" version="opset1">
			<data element_type="f32" shape="" offset="0" size="4" />
			<output>
				<port id="0" precision="FP32" />
			</output>
		</layer>
		<layer id="209" name="/backbone/backbone.2/backbone.2.0/block/block.6/activation_post_process_3/DequantizeLinear/fq_output_0/output_high" type="Const" version="opset1">
			<data element_type="f32" shape="" offset="482184" size="4" />
			<output>
				<port id="0" precision="FP32" />
			</output>
		</layer>
		<layer id="210" name="/backbone/backbone.2/backbone.2.0/block/block.6/activation_post_process_3/DequantizeLinear/fq_output_0" type="FakeQuantize" version="opset1">
			<data levels="256" auto_broadcast="numpy" />
			<input>
				<port id="0" precision="FP32">
					<dim>1</dim>
					<dim>96</dim>
					<dim>1</dim>
					<dim>1</dim>
				</port>
				<port id="1" precision="FP32" />
				<port id="2" precision="FP32" />
				<port id="3" precision="FP32" />
				<port id="4" precision="FP32" />
			</input>
			<output>
				<port id="5" precision="FP32">
					<dim>1</dim>
					<dim>96</dim>
					<dim>1</dim>
					<dim>1</dim>
				</port>
			</output>
		</layer>
		<layer id="211" name="/backbone/backbone.2/backbone.2.0/block/block.6/Mul" type="Multiply" version="opset1">
			<data auto_broadcast="numpy" />
			<input>
				<port id="0" precision="FP32">
					<dim>1</dim>
					<dim>96</dim>
					<dim>56</dim>
					<dim>56</dim>
				</port>
				<port id="1" precision="FP32">
					<dim>1</dim>
					<dim>96</dim>
					<dim>1</dim>
					<dim>1</dim>
				</port>
			</input>
			<output>
				<port id="2" precision="FP32" names="/backbone/backbone.2/backbone.2.0/block/block.6/Mul_output_0">
					<dim>1</dim>
					<dim>96</dim>
					<dim>56</dim>
					<dim>56</dim>
				</port>
			</output>
		</layer>
		<layer id="212" name="/backbone/backbone.2/backbone.2.0/block/block.6/Mul/fq_output_0/input_low" type="Const" version="opset1">
			<data element_type="f32" shape="" offset="482188" size="4" />
			<output>
				<port id="0" precision="FP32" />
			</output>
		</layer>
		<layer id="213" name="/backbone/backbone.2/backbone.2.0/block/block.6/Mul/fq_output_0/input_high" type="Const" version="opset1">
			<data element_type="f32" shape="" offset="482192" size="4" />
			<output>
				<port id="0" precision="FP32" />
			</output>
		</layer>
		<layer id="214" name="/backbone/backbone.2/backbone.2.0/block/block.6/Mul/fq_output_0/output_low" type="Const" version="opset1">
			<data element_type="f32" shape="" offset="482188" size="4" />
			<output>
				<port id="0" precision="FP32" />
			</output>
		</layer>
		<layer id="215" name="/backbone/backbone.2/backbone.2.0/block/block.6/Mul/fq_output_0/output_high" type="Const" version="opset1">
			<data element_type="f32" shape="" offset="482192" size="4" />
			<output>
				<port id="0" precision="FP32" />
			</output>
		</layer>
		<layer id="216" name="/backbone/backbone.2/backbone.2.0/block/block.6/Mul/fq_output_0" type="FakeQuantize" version="opset1">
			<data levels="256" auto_broadcast="numpy" />
			<input>
				<port id="0" precision="FP32">
					<dim>1</dim>
					<dim>96</dim>
					<dim>56</dim>
					<dim>56</dim>
				</port>
				<port id="1" precision="FP32" />
				<port id="2" precision="FP32" />
				<port id="3" precision="FP32" />
				<port id="4" precision="FP32" />
			</input>
			<output>
				<port id="5" precision="FP32">
					<dim>1</dim>
					<dim>96</dim>
					<dim>56</dim>
					<dim>56</dim>
				</port>
			</output>
		</layer>
		<layer id="217" name="Constant_247895" type="Const" version="opset1">
			<data element_type="i8" shape="24, 96, 1, 1" offset="482196" size="2304" />
			<output>
				<port id="0" precision="I8">
					<dim>24</dim>
					<dim>96</dim>
					<dim>1</dim>
					<dim>1</dim>
				</port>
			</output>
		</layer>
		<layer id="218" name="Convert_247896" type="Convert" version="opset1">
			<data destination_type="f32" />
			<input>
				<port id="0" precision="I8">
					<dim>24</dim>
					<dim>96</dim>
					<dim>1</dim>
					<dim>1</dim>
				</port>
			</input>
			<output>
				<port id="1" precision="FP32">
					<dim>24</dim>
					<dim>96</dim>
					<dim>1</dim>
					<dim>1</dim>
				</port>
			</output>
		</layer>
		<layer id="219" name="Constant_247897" type="Const" version="opset1">
			<data element_type="f32" shape="24, 1, 1, 1" offset="484500" size="96" />
			<output>
				<port id="0" precision="FP32">
					<dim>24</dim>
					<dim>1</dim>
					<dim>1</dim>
					<dim>1</dim>
				</port>
			</output>
		</layer>
		<layer id="220" name="Multiply_8779/fq_weights_1" type="Multiply" version="opset1">
			<data auto_broadcast="numpy" />
			<input>
				<port id="0" precision="FP32">
					<dim>24</dim>
					<dim>96</dim>
					<dim>1</dim>
					<dim>1</dim>
				</port>
				<port id="1" precision="FP32">
					<dim>24</dim>
					<dim>1</dim>
					<dim>1</dim>
					<dim>1</dim>
				</port>
			</input>
			<output>
				<port id="2" precision="FP32">
					<dim>24</dim>
					<dim>96</dim>
					<dim>1</dim>
					<dim>1</dim>
				</port>
			</output>
		</layer>
		<layer id="221" name="Multiply_8779" type="Convolution" version="opset1">
			<data strides="1, 1" dilations="1, 1" pads_begin="0, 0" pads_end="0, 0" auto_pad="explicit" />
			<input>
				<port id="0" precision="FP32">
					<dim>1</dim>
					<dim>96</dim>
					<dim>56</dim>
					<dim>56</dim>
				</port>
				<port id="1" precision="FP32">
					<dim>24</dim>
					<dim>96</dim>
					<dim>1</dim>
					<dim>1</dim>
				</port>
			</input>
			<output>
				<port id="2" precision="FP32" names="/backbone/backbone.2/backbone.2.0/block/block.8/BatchNormalization_output_0">
					<dim>1</dim>
					<dim>24</dim>
					<dim>56</dim>
					<dim>56</dim>
				</port>
			</output>
		</layer>
		<layer id="222" name="Multiply_8779/fq_output_0/input_low" type="Const" version="opset1">
			<data element_type="f32" shape="" offset="484596" size="4" />
			<output>
				<port id="0" precision="FP32" />
			</output>
		</layer>
		<layer id="223" name="Multiply_8779/fq_output_0/input_high" type="Const" version="opset1">
			<data element_type="f32" shape="" offset="484600" size="4" />
			<output>
				<port id="0" precision="FP32" />
			</output>
		</layer>
		<layer id="224" name="Multiply_8779/fq_output_0/output_low" type="Const" version="opset1">
			<data element_type="f32" shape="" offset="484596" size="4" />
			<output>
				<port id="0" precision="FP32" />
			</output>
		</layer>
		<layer id="225" name="Multiply_8779/fq_output_0/output_high" type="Const" version="opset1">
			<data element_type="f32" shape="" offset="484600" size="4" />
			<output>
				<port id="0" precision="FP32" />
			</output>
		</layer>
		<layer id="226" name="Multiply_8779/fq_output_0" type="FakeQuantize" version="opset1">
			<data levels="256" auto_broadcast="numpy" />
			<input>
				<port id="0" precision="FP32">
					<dim>1</dim>
					<dim>24</dim>
					<dim>56</dim>
					<dim>56</dim>
				</port>
				<port id="1" precision="FP32" />
				<port id="2" precision="FP32" />
				<port id="3" precision="FP32" />
				<port id="4" precision="FP32" />
			</input>
			<output>
				<port id="5" precision="FP32">
					<dim>1</dim>
					<dim>24</dim>
					<dim>56</dim>
					<dim>56</dim>
				</port>
			</output>
		</layer>
		<layer id="227" name="Constant_247899" type="Const" version="opset1">
			<data element_type="i8" shape="144, 24, 1, 1" offset="484604" size="3456" />
			<output>
				<port id="0" precision="I8">
					<dim>144</dim>
					<dim>24</dim>
					<dim>1</dim>
					<dim>1</dim>
				</port>
			</output>
		</layer>
		<layer id="228" name="Convert_247900" type="Convert" version="opset1">
			<data destination_type="f32" />
			<input>
				<port id="0" precision="I8">
					<dim>144</dim>
					<dim>24</dim>
					<dim>1</dim>
					<dim>1</dim>
				</port>
			</input>
			<output>
				<port id="1" precision="FP32">
					<dim>144</dim>
					<dim>24</dim>
					<dim>1</dim>
					<dim>1</dim>
				</port>
			</output>
		</layer>
		<layer id="229" name="Constant_247901" type="Const" version="opset1">
			<data element_type="f32" shape="144, 1, 1, 1" offset="488060" size="576" />
			<output>
				<port id="0" precision="FP32">
					<dim>144</dim>
					<dim>1</dim>
					<dim>1</dim>
					<dim>1</dim>
				</port>
			</output>
		</layer>
		<layer id="230" name="Multiply_8786/fq_weights_1" type="Multiply" version="opset1">
			<data auto_broadcast="numpy" />
			<input>
				<port id="0" precision="FP32">
					<dim>144</dim>
					<dim>24</dim>
					<dim>1</dim>
					<dim>1</dim>
				</port>
				<port id="1" precision="FP32">
					<dim>144</dim>
					<dim>1</dim>
					<dim>1</dim>
					<dim>1</dim>
				</port>
			</input>
			<output>
				<port id="2" precision="FP32">
					<dim>144</dim>
					<dim>24</dim>
					<dim>1</dim>
					<dim>1</dim>
				</port>
			</output>
		</layer>
		<layer id="231" name="Multiply_8786" type="Convolution" version="opset1">
			<data strides="1, 1" dilations="1, 1" pads_begin="0, 0" pads_end="0, 0" auto_pad="explicit" />
			<input>
				<port id="0" precision="FP32">
					<dim>1</dim>
					<dim>24</dim>
					<dim>56</dim>
					<dim>56</dim>
				</port>
				<port id="1" precision="FP32">
					<dim>144</dim>
					<dim>24</dim>
					<dim>1</dim>
					<dim>1</dim>
				</port>
			</input>
			<output>
				<port id="2" precision="FP32" names="/backbone/backbone.2/backbone.2.1/block/block.1/BatchNormalization_output_0">
					<dim>1</dim>
					<dim>144</dim>
					<dim>56</dim>
					<dim>56</dim>
				</port>
			</output>
		</layer>
		<layer id="232" name="/backbone/backbone.2/backbone.2.1/block/block.2/HardSwish" type="HSwish" version="opset4">
			<input>
				<port id="0" precision="FP32">
					<dim>1</dim>
					<dim>144</dim>
					<dim>56</dim>
					<dim>56</dim>
				</port>
			</input>
			<output>
				<port id="1" precision="FP32" names="/backbone/backbone.2/backbone.2.1/block/block.2/HardSwish_output_0">
					<dim>1</dim>
					<dim>144</dim>
					<dim>56</dim>
					<dim>56</dim>
				</port>
			</output>
		</layer>
		<layer id="233" name="/backbone/backbone.2/backbone.2.1/block/block.2/HardSwish/fq_output_0/input_low" type="Const" version="opset1">
			<data element_type="f32" shape="1, 144, 1, 1" offset="488636" size="576" />
			<output>
				<port id="0" precision="FP32">
					<dim>1</dim>
					<dim>144</dim>
					<dim>1</dim>
					<dim>1</dim>
				</port>
			</output>
		</layer>
		<layer id="234" name="/backbone/backbone.2/backbone.2.1/block/block.2/HardSwish/fq_output_0/input_high" type="Const" version="opset1">
			<data element_type="f32" shape="1, 144, 1, 1" offset="489212" size="576" />
			<output>
				<port id="0" precision="FP32">
					<dim>1</dim>
					<dim>144</dim>
					<dim>1</dim>
					<dim>1</dim>
				</port>
			</output>
		</layer>
		<layer id="235" name="/backbone/backbone.2/backbone.2.1/block/block.2/HardSwish/fq_output_0/output_low" type="Const" version="opset1">
			<data element_type="f32" shape="1, 144, 1, 1" offset="488636" size="576" />
			<output>
				<port id="0" precision="FP32">
					<dim>1</dim>
					<dim>144</dim>
					<dim>1</dim>
					<dim>1</dim>
				</port>
			</output>
		</layer>
		<layer id="236" name="/backbone/backbone.2/backbone.2.1/block/block.2/HardSwish/fq_output_0/output_high" type="Const" version="opset1">
			<data element_type="f32" shape="1, 144, 1, 1" offset="489212" size="576" />
			<output>
				<port id="0" precision="FP32">
					<dim>1</dim>
					<dim>144</dim>
					<dim>1</dim>
					<dim>1</dim>
				</port>
			</output>
		</layer>
		<layer id="237" name="/backbone/backbone.2/backbone.2.1/block/block.2/HardSwish/fq_output_0" type="FakeQuantize" version="opset1">
			<data levels="256" auto_broadcast="numpy" />
			<input>
				<port id="0" precision="FP32">
					<dim>1</dim>
					<dim>144</dim>
					<dim>56</dim>
					<dim>56</dim>
				</port>
				<port id="1" precision="FP32">
					<dim>1</dim>
					<dim>144</dim>
					<dim>1</dim>
					<dim>1</dim>
				</port>
				<port id="2" precision="FP32">
					<dim>1</dim>
					<dim>144</dim>
					<dim>1</dim>
					<dim>1</dim>
				</port>
				<port id="3" precision="FP32">
					<dim>1</dim>
					<dim>144</dim>
					<dim>1</dim>
					<dim>1</dim>
				</port>
				<port id="4" precision="FP32">
					<dim>1</dim>
					<dim>144</dim>
					<dim>1</dim>
					<dim>1</dim>
				</port>
			</input>
			<output>
				<port id="5" precision="FP32">
					<dim>1</dim>
					<dim>144</dim>
					<dim>56</dim>
					<dim>56</dim>
				</port>
			</output>
		</layer>
		<layer id="238" name="Constant_247903" type="Const" version="opset1">
			<data element_type="i8" shape="144, 1, 1, 3, 3" offset="489788" size="1296" />
			<output>
				<port id="0" precision="I8">
					<dim>144</dim>
					<dim>1</dim>
					<dim>1</dim>
					<dim>3</dim>
					<dim>3</dim>
				</port>
			</output>
		</layer>
		<layer id="239" name="Convert_247904" type="Convert" version="opset1">
			<data destination_type="f32" />
			<input>
				<port id="0" precision="I8">
					<dim>144</dim>
					<dim>1</dim>
					<dim>1</dim>
					<dim>3</dim>
					<dim>3</dim>
				</port>
			</input>
			<output>
				<port id="1" precision="FP32">
					<dim>144</dim>
					<dim>1</dim>
					<dim>1</dim>
					<dim>3</dim>
					<dim>3</dim>
				</port>
			</output>
		</layer>
		<layer id="240" name="Constant_247905" type="Const" version="opset1">
			<data element_type="f32" shape="144, 1, 1, 1, 1" offset="491084" size="576" />
			<output>
				<port id="0" precision="FP32">
					<dim>144</dim>
					<dim>1</dim>
					<dim>1</dim>
					<dim>1</dim>
					<dim>1</dim>
				</port>
			</output>
		</layer>
		<layer id="241" name="Multiply_8793/fq_weights_1" type="Multiply" version="opset1">
			<data auto_broadcast="numpy" />
			<input>
				<port id="0" precision="FP32">
					<dim>144</dim>
					<dim>1</dim>
					<dim>1</dim>
					<dim>3</dim>
					<dim>3</dim>
				</port>
				<port id="1" precision="FP32">
					<dim>144</dim>
					<dim>1</dim>
					<dim>1</dim>
					<dim>1</dim>
					<dim>1</dim>
				</port>
			</input>
			<output>
				<port id="2" precision="FP32">
					<dim>144</dim>
					<dim>1</dim>
					<dim>1</dim>
					<dim>3</dim>
					<dim>3</dim>
				</port>
			</output>
		</layer>
		<layer id="242" name="Multiply_8793" type="GroupConvolution" version="opset1">
			<data strides="1, 1" pads_begin="1, 1" pads_end="1, 1" dilations="1, 1" auto_pad="explicit" />
			<input>
				<port id="0" precision="FP32">
					<dim>1</dim>
					<dim>144</dim>
					<dim>56</dim>
					<dim>56</dim>
				</port>
				<port id="1" precision="FP32">
					<dim>144</dim>
					<dim>1</dim>
					<dim>1</dim>
					<dim>3</dim>
					<dim>3</dim>
				</port>
			</input>
			<output>
				<port id="2" precision="FP32" names="/backbone/backbone.2/backbone.2.1/block/block.3/Conv_output_0,/backbone/backbone.2/backbone.2.1/block/block.4/BatchNormalization_output_0">
					<dim>1</dim>
					<dim>144</dim>
					<dim>56</dim>
					<dim>56</dim>
				</port>
			</output>
		</layer>
		<layer id="243" name="/backbone/backbone.2/backbone.2.1/block/block.5/HardSwish" type="HSwish" version="opset4">
			<input>
				<port id="0" precision="FP32">
					<dim>1</dim>
					<dim>144</dim>
					<dim>56</dim>
					<dim>56</dim>
				</port>
			</input>
			<output>
				<port id="1" precision="FP32" names="/backbone/backbone.2/backbone.2.1/block/block.5/HardSwish_output_0">
					<dim>1</dim>
					<dim>144</dim>
					<dim>56</dim>
					<dim>56</dim>
				</port>
			</output>
		</layer>
		<layer id="244" name="/backbone/backbone.2/backbone.2.1/block/block.5/HardSwish/fq_output_0/input_low" type="Const" version="opset1">
			<data element_type="f32" shape="" offset="491660" size="4" />
			<output>
				<port id="0" precision="FP32" />
			</output>
		</layer>
		<layer id="245" name="/backbone/backbone.2/backbone.2.1/block/block.5/HardSwish/fq_output_0/input_high" type="Const" version="opset1">
			<data element_type="f32" shape="" offset="491664" size="4" />
			<output>
				<port id="0" precision="FP32" />
			</output>
		</layer>
		<layer id="246" name="/backbone/backbone.2/backbone.2.1/block/block.5/HardSwish/fq_output_0/output_low" type="Const" version="opset1">
			<data element_type="f32" shape="" offset="491660" size="4" />
			<output>
				<port id="0" precision="FP32" />
			</output>
		</layer>
		<layer id="247" name="/backbone/backbone.2/backbone.2.1/block/block.5/HardSwish/fq_output_0/output_high" type="Const" version="opset1">
			<data element_type="f32" shape="" offset="491664" size="4" />
			<output>
				<port id="0" precision="FP32" />
			</output>
		</layer>
		<layer id="248" name="/backbone/backbone.2/backbone.2.1/block/block.5/HardSwish/fq_output_0" type="FakeQuantize" version="opset1">
			<data levels="256" auto_broadcast="numpy" />
			<input>
				<port id="0" precision="FP32">
					<dim>1</dim>
					<dim>144</dim>
					<dim>56</dim>
					<dim>56</dim>
				</port>
				<port id="1" precision="FP32" />
				<port id="2" precision="FP32" />
				<port id="3" precision="FP32" />
				<port id="4" precision="FP32" />
			</input>
			<output>
				<port id="5" precision="FP32">
					<dim>1</dim>
					<dim>144</dim>
					<dim>56</dim>
					<dim>56</dim>
				</port>
			</output>
		</layer>
		<layer id="249" name="Range_325" type="Const" version="opset1">
			<data element_type="i64" shape="2" offset="19536" size="16" />
			<output>
				<port id="0" precision="I64">
					<dim>2</dim>
				</port>
			</output>
		</layer>
		<layer id="250" name="/backbone/backbone.2/backbone.2.1/block/block.6/avgpool/GlobalAveragePool" type="ReduceMean" version="opset1">
			<data keep_dims="true" />
			<input>
				<port id="0" precision="FP32">
					<dim>1</dim>
					<dim>144</dim>
					<dim>56</dim>
					<dim>56</dim>
				</port>
				<port id="1" precision="I64">
					<dim>2</dim>
				</port>
			</input>
			<output>
				<port id="2" precision="FP32" names="/backbone/backbone.2/backbone.2.1/block/block.6/avgpool/GlobalAveragePool_output_0">
					<dim>1</dim>
					<dim>144</dim>
					<dim>1</dim>
					<dim>1</dim>
				</port>
			</output>
		</layer>
		<layer id="251" name="/backbone/backbone.2/backbone.2.1/block/block.6/avgpool/GlobalAveragePool/fq_output_0/input_low" type="Const" version="opset1">
			<data element_type="f32" shape="" offset="491668" size="4" />
			<output>
				<port id="0" precision="FP32" />
			</output>
		</layer>
		<layer id="252" name="/backbone/backbone.2/backbone.2.1/block/block.6/avgpool/GlobalAveragePool/fq_output_0/input_high" type="Const" version="opset1">
			<data element_type="f32" shape="" offset="491672" size="4" />
			<output>
				<port id="0" precision="FP32" />
			</output>
		</layer>
		<layer id="253" name="/backbone/backbone.2/backbone.2.1/block/block.6/avgpool/GlobalAveragePool/fq_output_0/output_low" type="Const" version="opset1">
			<data element_type="f32" shape="" offset="491668" size="4" />
			<output>
				<port id="0" precision="FP32" />
			</output>
		</layer>
		<layer id="254" name="/backbone/backbone.2/backbone.2.1/block/block.6/avgpool/GlobalAveragePool/fq_output_0/output_high" type="Const" version="opset1">
			<data element_type="f32" shape="" offset="491672" size="4" />
			<output>
				<port id="0" precision="FP32" />
			</output>
		</layer>
		<layer id="255" name="/backbone/backbone.2/backbone.2.1/block/block.6/avgpool/GlobalAveragePool/fq_output_0" type="FakeQuantize" version="opset1">
			<data levels="256" auto_broadcast="numpy" />
			<input>
				<port id="0" precision="FP32">
					<dim>1</dim>
					<dim>144</dim>
					<dim>1</dim>
					<dim>1</dim>
				</port>
				<port id="1" precision="FP32" />
				<port id="2" precision="FP32" />
				<port id="3" precision="FP32" />
				<port id="4" precision="FP32" />
			</input>
			<output>
				<port id="5" precision="FP32">
					<dim>1</dim>
					<dim>144</dim>
					<dim>1</dim>
					<dim>1</dim>
				</port>
			</output>
		</layer>
		<layer id="256" name="Constant_247907" type="Const" version="opset1">
			<data element_type="i8" shape="6, 144, 1, 1" offset="491676" size="864" />
			<output>
				<port id="0" precision="I8">
					<dim>6</dim>
					<dim>144</dim>
					<dim>1</dim>
					<dim>1</dim>
				</port>
			</output>
		</layer>
		<layer id="257" name="Convert_247908" type="Convert" version="opset1">
			<data destination_type="f32" />
			<input>
				<port id="0" precision="I8">
					<dim>6</dim>
					<dim>144</dim>
					<dim>1</dim>
					<dim>1</dim>
				</port>
			</input>
			<output>
				<port id="1" precision="FP32">
					<dim>6</dim>
					<dim>144</dim>
					<dim>1</dim>
					<dim>1</dim>
				</port>
			</output>
		</layer>
		<layer id="258" name="Constant_247909" type="Const" version="opset1">
			<data element_type="f32" shape="6, 1, 1, 1" offset="492540" size="24" />
			<output>
				<port id="0" precision="FP32">
					<dim>6</dim>
					<dim>1</dim>
					<dim>1</dim>
					<dim>1</dim>
				</port>
			</output>
		</layer>
		<layer id="259" name="/backbone/backbone.2/backbone.2.1/block/block.6/fc1/Conv/WithoutBiases/fq_weights_1" type="Multiply" version="opset1">
			<data auto_broadcast="numpy" />
			<input>
				<port id="0" precision="FP32">
					<dim>6</dim>
					<dim>144</dim>
					<dim>1</dim>
					<dim>1</dim>
				</port>
				<port id="1" precision="FP32">
					<dim>6</dim>
					<dim>1</dim>
					<dim>1</dim>
					<dim>1</dim>
				</port>
			</input>
			<output>
				<port id="2" precision="FP32">
					<dim>6</dim>
					<dim>144</dim>
					<dim>1</dim>
					<dim>1</dim>
				</port>
			</output>
		</layer>
		<layer id="260" name="/backbone/backbone.2/backbone.2.1/block/block.6/fc1/Conv/WithoutBiases" type="Convolution" version="opset1">
			<data strides="1, 1" dilations="1, 1" pads_begin="0, 0" pads_end="0, 0" auto_pad="explicit" />
			<input>
				<port id="0" precision="FP32">
					<dim>1</dim>
					<dim>144</dim>
					<dim>1</dim>
					<dim>1</dim>
				</port>
				<port id="1" precision="FP32">
					<dim>6</dim>
					<dim>144</dim>
					<dim>1</dim>
					<dim>1</dim>
				</port>
			</input>
			<output>
				<port id="2" precision="FP32">
					<dim>1</dim>
					<dim>6</dim>
					<dim>1</dim>
					<dim>1</dim>
				</port>
			</output>
		</layer>
		<layer id="261" name="Reshape_342" type="Const" version="opset1">
			<data element_type="f32" shape="1, 6, 1, 1" offset="492564" size="24" />
			<output>
				<port id="0" precision="FP32">
					<dim>1</dim>
					<dim>6</dim>
					<dim>1</dim>
					<dim>1</dim>
				</port>
			</output>
		</layer>
		<layer id="262" name="/backbone/backbone.2/backbone.2.1/block/block.6/fc1/Conv" type="Add" version="opset1">
			<data auto_broadcast="numpy" />
			<input>
				<port id="0" precision="FP32">
					<dim>1</dim>
					<dim>6</dim>
					<dim>1</dim>
					<dim>1</dim>
				</port>
				<port id="1" precision="FP32">
					<dim>1</dim>
					<dim>6</dim>
					<dim>1</dim>
					<dim>1</dim>
				</port>
			</input>
			<output>
				<port id="2" precision="FP32" names="/backbone/backbone.2/backbone.2.1/block/block.6/fc1/Conv_output_0">
					<dim>1</dim>
					<dim>6</dim>
					<dim>1</dim>
					<dim>1</dim>
				</port>
			</output>
		</layer>
		<layer id="263" name="/backbone/backbone.2/backbone.2.1/block/block.6/activation/HardSwish" type="HSwish" version="opset4">
			<input>
				<port id="0" precision="FP32">
					<dim>1</dim>
					<dim>6</dim>
					<dim>1</dim>
					<dim>1</dim>
				</port>
			</input>
			<output>
				<port id="1" precision="FP32" names="/backbone/backbone.2/backbone.2.1/block/block.6/activation/HardSwish_output_0">
					<dim>1</dim>
					<dim>6</dim>
					<dim>1</dim>
					<dim>1</dim>
				</port>
			</output>
		</layer>
		<layer id="264" name="/backbone/backbone.2/backbone.2.1/block/block.6/activation/HardSwish/fq_output_0/input_low" type="Const" version="opset1">
			<data element_type="f32" shape="" offset="492588" size="4" />
			<output>
				<port id="0" precision="FP32" />
			</output>
		</layer>
		<layer id="265" name="/backbone/backbone.2/backbone.2.1/block/block.6/activation/HardSwish/fq_output_0/input_high" type="Const" version="opset1">
			<data element_type="f32" shape="" offset="492592" size="4" />
			<output>
				<port id="0" precision="FP32" />
			</output>
		</layer>
		<layer id="266" name="/backbone/backbone.2/backbone.2.1/block/block.6/activation/HardSwish/fq_output_0/output_low" type="Const" version="opset1">
			<data element_type="f32" shape="" offset="492588" size="4" />
			<output>
				<port id="0" precision="FP32" />
			</output>
		</layer>
		<layer id="267" name="/backbone/backbone.2/backbone.2.1/block/block.6/activation/HardSwish/fq_output_0/output_high" type="Const" version="opset1">
			<data element_type="f32" shape="" offset="492592" size="4" />
			<output>
				<port id="0" precision="FP32" />
			</output>
		</layer>
		<layer id="268" name="/backbone/backbone.2/backbone.2.1/block/block.6/activation/HardSwish/fq_output_0" type="FakeQuantize" version="opset1">
			<data levels="256" auto_broadcast="numpy" />
			<input>
				<port id="0" precision="FP32">
					<dim>1</dim>
					<dim>6</dim>
					<dim>1</dim>
					<dim>1</dim>
				</port>
				<port id="1" precision="FP32" />
				<port id="2" precision="FP32" />
				<port id="3" precision="FP32" />
				<port id="4" precision="FP32" />
			</input>
			<output>
				<port id="5" precision="FP32">
					<dim>1</dim>
					<dim>6</dim>
					<dim>1</dim>
					<dim>1</dim>
				</port>
			</output>
		</layer>
		<layer id="269" name="Constant_247911" type="Const" version="opset1">
			<data element_type="i8" shape="144, 6, 1, 1" offset="492596" size="864" />
			<output>
				<port id="0" precision="I8">
					<dim>144</dim>
					<dim>6</dim>
					<dim>1</dim>
					<dim>1</dim>
				</port>
			</output>
		</layer>
		<layer id="270" name="Convert_247912" type="Convert" version="opset1">
			<data destination_type="f32" />
			<input>
				<port id="0" precision="I8">
					<dim>144</dim>
					<dim>6</dim>
					<dim>1</dim>
					<dim>1</dim>
				</port>
			</input>
			<output>
				<port id="1" precision="FP32">
					<dim>144</dim>
					<dim>6</dim>
					<dim>1</dim>
					<dim>1</dim>
				</port>
			</output>
		</layer>
		<layer id="271" name="Constant_247913" type="Const" version="opset1">
			<data element_type="f32" shape="144, 1, 1, 1" offset="493460" size="576" />
			<output>
				<port id="0" precision="FP32">
					<dim>144</dim>
					<dim>1</dim>
					<dim>1</dim>
					<dim>1</dim>
				</port>
			</output>
		</layer>
		<layer id="272" name="/backbone/backbone.2/backbone.2.1/block/block.6/fc2/Conv/WithoutBiases/fq_weights_1" type="Multiply" version="opset1">
			<data auto_broadcast="numpy" />
			<input>
				<port id="0" precision="FP32">
					<dim>144</dim>
					<dim>6</dim>
					<dim>1</dim>
					<dim>1</dim>
				</port>
				<port id="1" precision="FP32">
					<dim>144</dim>
					<dim>1</dim>
					<dim>1</dim>
					<dim>1</dim>
				</port>
			</input>
			<output>
				<port id="2" precision="FP32">
					<dim>144</dim>
					<dim>6</dim>
					<dim>1</dim>
					<dim>1</dim>
				</port>
			</output>
		</layer>
		<layer id="273" name="/backbone/backbone.2/backbone.2.1/block/block.6/fc2/Conv/WithoutBiases" type="Convolution" version="opset1">
			<data strides="1, 1" dilations="1, 1" pads_begin="0, 0" pads_end="0, 0" auto_pad="explicit" />
			<input>
				<port id="0" precision="FP32">
					<dim>1</dim>
					<dim>6</dim>
					<dim>1</dim>
					<dim>1</dim>
				</port>
				<port id="1" precision="FP32">
					<dim>144</dim>
					<dim>6</dim>
					<dim>1</dim>
					<dim>1</dim>
				</port>
			</input>
			<output>
				<port id="2" precision="FP32">
					<dim>1</dim>
					<dim>144</dim>
					<dim>1</dim>
					<dim>1</dim>
				</port>
			</output>
		</layer>
		<layer id="274" name="Reshape_358" type="Const" version="opset1">
			<data element_type="f32" shape="1, 144, 1, 1" offset="494036" size="576" />
			<output>
				<port id="0" precision="FP32">
					<dim>1</dim>
					<dim>144</dim>
					<dim>1</dim>
					<dim>1</dim>
				</port>
			</output>
		</layer>
		<layer id="275" name="/backbone/backbone.2/backbone.2.1/block/block.6/fc2/Conv" type="Add" version="opset1">
			<data auto_broadcast="numpy" />
			<input>
				<port id="0" precision="FP32">
					<dim>1</dim>
					<dim>144</dim>
					<dim>1</dim>
					<dim>1</dim>
				</port>
				<port id="1" precision="FP32">
					<dim>1</dim>
					<dim>144</dim>
					<dim>1</dim>
					<dim>1</dim>
				</port>
			</input>
			<output>
				<port id="2" precision="FP32" names="/backbone/backbone.2/backbone.2.1/block/block.6/fc2/Conv_output_0">
					<dim>1</dim>
					<dim>144</dim>
					<dim>1</dim>
					<dim>1</dim>
				</port>
			</output>
		</layer>
		<layer id="276" name="/backbone/backbone.2/backbone.2.1/block/block.6/scale_activation/Sigmoid" type="Sigmoid" version="opset1">
			<input>
				<port id="0" precision="FP32">
					<dim>1</dim>
					<dim>144</dim>
					<dim>1</dim>
					<dim>1</dim>
				</port>
			</input>
			<output>
				<port id="1" precision="FP32" names="/backbone/backbone.2/backbone.2.1/block/block.6/scale_activation/Sigmoid_output_0">
					<dim>1</dim>
					<dim>144</dim>
					<dim>1</dim>
					<dim>1</dim>
				</port>
			</output>
		</layer>
		<layer id="277" name="Constant_9417" type="Const" version="opset1">
			<data element_type="f32" shape="1, 1, 1, 1" offset="0" size="4" />
			<output>
				<port id="0" precision="FP32">
					<dim>1</dim>
					<dim>1</dim>
					<dim>1</dim>
					<dim>1</dim>
				</port>
			</output>
		</layer>
		<layer id="278" name="Constant_9418" type="Const" version="opset1">
			<data element_type="f32" shape="1, 1, 1, 1" offset="476056" size="4" />
			<output>
				<port id="0" precision="FP32">
					<dim>1</dim>
					<dim>1</dim>
					<dim>1</dim>
					<dim>1</dim>
				</port>
			</output>
		</layer>
		<layer id="279" name="Constant_9419" type="Const" version="opset1">
			<data element_type="f32" shape="1, 1, 1, 1" offset="0" size="4" />
			<output>
				<port id="0" precision="FP32">
					<dim>1</dim>
					<dim>1</dim>
					<dim>1</dim>
					<dim>1</dim>
				</port>
			</output>
		</layer>
		<layer id="280" name="Constant_9420" type="Const" version="opset1">
			<data element_type="f32" shape="1, 1, 1, 1" offset="476056" size="4" />
			<output>
				<port id="0" precision="FP32">
					<dim>1</dim>
					<dim>1</dim>
					<dim>1</dim>
					<dim>1</dim>
				</port>
			</output>
		</layer>
		<layer id="281" name="/backbone/backbone.2/backbone.2.1/block/block.6/activation_post_process_3/DequantizeLinear" type="FakeQuantize" version="opset1">
			<data levels="256" auto_broadcast="numpy" />
			<input>
				<port id="0" precision="FP32">
					<dim>1</dim>
					<dim>144</dim>
					<dim>1</dim>
					<dim>1</dim>
				</port>
				<port id="1" precision="FP32">
					<dim>1</dim>
					<dim>1</dim>
					<dim>1</dim>
					<dim>1</dim>
				</port>
				<port id="2" precision="FP32">
					<dim>1</dim>
					<dim>1</dim>
					<dim>1</dim>
					<dim>1</dim>
				</port>
				<port id="3" precision="FP32">
					<dim>1</dim>
					<dim>1</dim>
					<dim>1</dim>
					<dim>1</dim>
				</port>
				<port id="4" precision="FP32">
					<dim>1</dim>
					<dim>1</dim>
					<dim>1</dim>
					<dim>1</dim>
				</port>
			</input>
			<output>
				<port id="5" precision="FP32" names="/backbone/backbone.2/backbone.2.1/block/block.6/activation_post_process_3/DequantizeLinear_output_0">
					<dim>1</dim>
					<dim>144</dim>
					<dim>1</dim>
					<dim>1</dim>
				</port>
			</output>
		</layer>
		<layer id="282" name="/backbone/backbone.2/backbone.2.1/block/block.6/activation_post_process_3/DequantizeLinear/fq_output_0/input_low" type="Const" version="opset1">
			<data element_type="f32" shape="" offset="0" size="4" />
			<output>
				<port id="0" precision="FP32" />
			</output>
		</layer>
		<layer id="283" name="/backbone/backbone.2/backbone.2.1/block/block.6/activation_post_process_3/DequantizeLinear/fq_output_0/input_high" type="Const" version="opset1">
			<data element_type="f32" shape="" offset="476060" size="4" />
			<output>
				<port id="0" precision="FP32" />
			</output>
		</layer>
		<layer id="284" name="/backbone/backbone.2/backbone.2.1/block/block.6/activation_post_process_3/DequantizeLinear/fq_output_0/output_low" type="Const" version="opset1">
			<data element_type="f32" shape="" offset="0" size="4" />
			<output>
				<port id="0" precision="FP32" />
			</output>
		</layer>
		<layer id="285" name="/backbone/backbone.2/backbone.2.1/block/block.6/activation_post_process_3/DequantizeLinear/fq_output_0/output_high" type="Const" version="opset1">
			<data element_type="f32" shape="" offset="476060" size="4" />
			<output>
				<port id="0" precision="FP32" />
			</output>
		</layer>
		<layer id="286" name="/backbone/backbone.2/backbone.2.1/block/block.6/activation_post_process_3/DequantizeLinear/fq_output_0" type="FakeQuantize" version="opset1">
			<data levels="256" auto_broadcast="numpy" />
			<input>
				<port id="0" precision="FP32">
					<dim>1</dim>
					<dim>144</dim>
					<dim>1</dim>
					<dim>1</dim>
				</port>
				<port id="1" precision="FP32" />
				<port id="2" precision="FP32" />
				<port id="3" precision="FP32" />
				<port id="4" precision="FP32" />
			</input>
			<output>
				<port id="5" precision="FP32">
					<dim>1</dim>
					<dim>144</dim>
					<dim>1</dim>
					<dim>1</dim>
				</port>
			</output>
		</layer>
		<layer id="287" name="/backbone/backbone.2/backbone.2.1/block/block.6/Mul" type="Multiply" version="opset1">
			<data auto_broadcast="numpy" />
			<input>
				<port id="0" precision="FP32">
					<dim>1</dim>
					<dim>144</dim>
					<dim>56</dim>
					<dim>56</dim>
				</port>
				<port id="1" precision="FP32">
					<dim>1</dim>
					<dim>144</dim>
					<dim>1</dim>
					<dim>1</dim>
				</port>
			</input>
			<output>
				<port id="2" precision="FP32" names="/backbone/backbone.2/backbone.2.1/block/block.6/Mul_output_0">
					<dim>1</dim>
					<dim>144</dim>
					<dim>56</dim>
					<dim>56</dim>
				</port>
			</output>
		</layer>
		<layer id="288" name="/backbone/backbone.2/backbone.2.1/block/block.6/Mul/fq_output_0/input_low" type="Const" version="opset1">
			<data element_type="f32" shape="" offset="494612" size="4" />
			<output>
				<port id="0" precision="FP32" />
			</output>
		</layer>
		<layer id="289" name="/backbone/backbone.2/backbone.2.1/block/block.6/Mul/fq_output_0/input_high" type="Const" version="opset1">
			<data element_type="f32" shape="" offset="494616" size="4" />
			<output>
				<port id="0" precision="FP32" />
			</output>
		</layer>
		<layer id="290" name="/backbone/backbone.2/backbone.2.1/block/block.6/Mul/fq_output_0/output_low" type="Const" version="opset1">
			<data element_type="f32" shape="" offset="494612" size="4" />
			<output>
				<port id="0" precision="FP32" />
			</output>
		</layer>
		<layer id="291" name="/backbone/backbone.2/backbone.2.1/block/block.6/Mul/fq_output_0/output_high" type="Const" version="opset1">
			<data element_type="f32" shape="" offset="494616" size="4" />
			<output>
				<port id="0" precision="FP32" />
			</output>
		</layer>
		<layer id="292" name="/backbone/backbone.2/backbone.2.1/block/block.6/Mul/fq_output_0" type="FakeQuantize" version="opset1">
			<data levels="256" auto_broadcast="numpy" />
			<input>
				<port id="0" precision="FP32">
					<dim>1</dim>
					<dim>144</dim>
					<dim>56</dim>
					<dim>56</dim>
				</port>
				<port id="1" precision="FP32" />
				<port id="2" precision="FP32" />
				<port id="3" precision="FP32" />
				<port id="4" precision="FP32" />
			</input>
			<output>
				<port id="5" precision="FP32">
					<dim>1</dim>
					<dim>144</dim>
					<dim>56</dim>
					<dim>56</dim>
				</port>
			</output>
		</layer>
		<layer id="293" name="Constant_247915" type="Const" version="opset1">
			<data element_type="i8" shape="24, 144, 1, 1" offset="494620" size="3456" />
			<output>
				<port id="0" precision="I8">
					<dim>24</dim>
					<dim>144</dim>
					<dim>1</dim>
					<dim>1</dim>
				</port>
			</output>
		</layer>
		<layer id="294" name="Convert_247916" type="Convert" version="opset1">
			<data destination_type="f32" />
			<input>
				<port id="0" precision="I8">
					<dim>24</dim>
					<dim>144</dim>
					<dim>1</dim>
					<dim>1</dim>
				</port>
			</input>
			<output>
				<port id="1" precision="FP32">
					<dim>24</dim>
					<dim>144</dim>
					<dim>1</dim>
					<dim>1</dim>
				</port>
			</output>
		</layer>
		<layer id="295" name="Constant_247917" type="Const" version="opset1">
			<data element_type="f32" shape="24, 1, 1, 1" offset="498076" size="96" />
			<output>
				<port id="0" precision="FP32">
					<dim>24</dim>
					<dim>1</dim>
					<dim>1</dim>
					<dim>1</dim>
				</port>
			</output>
		</layer>
		<layer id="296" name="Multiply_8800/fq_weights_1" type="Multiply" version="opset1">
			<data auto_broadcast="numpy" />
			<input>
				<port id="0" precision="FP32">
					<dim>24</dim>
					<dim>144</dim>
					<dim>1</dim>
					<dim>1</dim>
				</port>
				<port id="1" precision="FP32">
					<dim>24</dim>
					<dim>1</dim>
					<dim>1</dim>
					<dim>1</dim>
				</port>
			</input>
			<output>
				<port id="2" precision="FP32">
					<dim>24</dim>
					<dim>144</dim>
					<dim>1</dim>
					<dim>1</dim>
				</port>
			</output>
		</layer>
		<layer id="297" name="Multiply_8800" type="Convolution" version="opset1">
			<data strides="1, 1" dilations="1, 1" pads_begin="0, 0" pads_end="0, 0" auto_pad="explicit" />
			<input>
				<port id="0" precision="FP32">
					<dim>1</dim>
					<dim>144</dim>
					<dim>56</dim>
					<dim>56</dim>
				</port>
				<port id="1" precision="FP32">
					<dim>24</dim>
					<dim>144</dim>
					<dim>1</dim>
					<dim>1</dim>
				</port>
			</input>
			<output>
				<port id="2" precision="FP32" names="/backbone/backbone.2/backbone.2.1/block/block.8/BatchNormalization_output_0">
					<dim>1</dim>
					<dim>24</dim>
					<dim>56</dim>
					<dim>56</dim>
				</port>
			</output>
		</layer>
		<layer id="298" name="Multiply_8800/fq_output_0/input_low" type="Const" version="opset1">
			<data element_type="f32" shape="" offset="498172" size="4" />
			<output>
				<port id="0" precision="FP32" />
			</output>
		</layer>
		<layer id="299" name="Multiply_8800/fq_output_0/input_high" type="Const" version="opset1">
			<data element_type="f32" shape="" offset="498176" size="4" />
			<output>
				<port id="0" precision="FP32" />
			</output>
		</layer>
		<layer id="300" name="Multiply_8800/fq_output_0/output_low" type="Const" version="opset1">
			<data element_type="f32" shape="" offset="498172" size="4" />
			<output>
				<port id="0" precision="FP32" />
			</output>
		</layer>
		<layer id="301" name="Multiply_8800/fq_output_0/output_high" type="Const" version="opset1">
			<data element_type="f32" shape="" offset="498176" size="4" />
			<output>
				<port id="0" precision="FP32" />
			</output>
		</layer>
		<layer id="302" name="Multiply_8800/fq_output_0" type="FakeQuantize" version="opset1">
			<data levels="256" auto_broadcast="numpy" />
			<input>
				<port id="0" precision="FP32">
					<dim>1</dim>
					<dim>24</dim>
					<dim>56</dim>
					<dim>56</dim>
				</port>
				<port id="1" precision="FP32" />
				<port id="2" precision="FP32" />
				<port id="3" precision="FP32" />
				<port id="4" precision="FP32" />
			</input>
			<output>
				<port id="5" precision="FP32">
					<dim>1</dim>
					<dim>24</dim>
					<dim>56</dim>
					<dim>56</dim>
				</port>
			</output>
		</layer>
		<layer id="303" name="/backbone/backbone.2/backbone.2.1/Add" type="Add" version="opset1">
			<data auto_broadcast="numpy" />
			<input>
				<port id="0" precision="FP32">
					<dim>1</dim>
					<dim>24</dim>
					<dim>56</dim>
					<dim>56</dim>
				</port>
				<port id="1" precision="FP32">
					<dim>1</dim>
					<dim>24</dim>
					<dim>56</dim>
					<dim>56</dim>
				</port>
			</input>
			<output>
				<port id="2" precision="FP32" names="/backbone/backbone.2/backbone.2.1/Add_output_0">
					<dim>1</dim>
					<dim>24</dim>
					<dim>56</dim>
					<dim>56</dim>
				</port>
			</output>
		</layer>
		<layer id="304" name="/backbone/backbone.2/backbone.2.1/Add/fq_output_0/input_low" type="Const" version="opset1">
			<data element_type="f32" shape="" offset="498180" size="4" />
			<output>
				<port id="0" precision="FP32" />
			</output>
		</layer>
		<layer id="305" name="/backbone/backbone.2/backbone.2.1/Add/fq_output_0/input_high" type="Const" version="opset1">
			<data element_type="f32" shape="" offset="498184" size="4" />
			<output>
				<port id="0" precision="FP32" />
			</output>
		</layer>
		<layer id="306" name="/backbone/backbone.2/backbone.2.1/Add/fq_output_0/output_low" type="Const" version="opset1">
			<data element_type="f32" shape="" offset="498180" size="4" />
			<output>
				<port id="0" precision="FP32" />
			</output>
		</layer>
		<layer id="307" name="/backbone/backbone.2/backbone.2.1/Add/fq_output_0/output_high" type="Const" version="opset1">
			<data element_type="f32" shape="" offset="498184" size="4" />
			<output>
				<port id="0" precision="FP32" />
			</output>
		</layer>
		<layer id="308" name="/backbone/backbone.2/backbone.2.1/Add/fq_output_0" type="FakeQuantize" version="opset1">
			<data levels="256" auto_broadcast="numpy" />
			<input>
				<port id="0" precision="FP32">
					<dim>1</dim>
					<dim>24</dim>
					<dim>56</dim>
					<dim>56</dim>
				</port>
				<port id="1" precision="FP32" />
				<port id="2" precision="FP32" />
				<port id="3" precision="FP32" />
				<port id="4" precision="FP32" />
			</input>
			<output>
				<port id="5" precision="FP32">
					<dim>1</dim>
					<dim>24</dim>
					<dim>56</dim>
					<dim>56</dim>
				</port>
			</output>
		</layer>
		<layer id="309" name="Constant_247919" type="Const" version="opset1">
			<data element_type="i8" shape="144, 24, 1, 1" offset="498188" size="3456" />
			<output>
				<port id="0" precision="I8">
					<dim>144</dim>
					<dim>24</dim>
					<dim>1</dim>
					<dim>1</dim>
				</port>
			</output>
		</layer>
		<layer id="310" name="Convert_247920" type="Convert" version="opset1">
			<data destination_type="f32" />
			<input>
				<port id="0" precision="I8">
					<dim>144</dim>
					<dim>24</dim>
					<dim>1</dim>
					<dim>1</dim>
				</port>
			</input>
			<output>
				<port id="1" precision="FP32">
					<dim>144</dim>
					<dim>24</dim>
					<dim>1</dim>
					<dim>1</dim>
				</port>
			</output>
		</layer>
		<layer id="311" name="Constant_247921" type="Const" version="opset1">
			<data element_type="f32" shape="144, 1, 1, 1" offset="501644" size="576" />
			<output>
				<port id="0" precision="FP32">
					<dim>144</dim>
					<dim>1</dim>
					<dim>1</dim>
					<dim>1</dim>
				</port>
			</output>
		</layer>
		<layer id="312" name="Multiply_8807/fq_weights_1" type="Multiply" version="opset1">
			<data auto_broadcast="numpy" />
			<input>
				<port id="0" precision="FP32">
					<dim>144</dim>
					<dim>24</dim>
					<dim>1</dim>
					<dim>1</dim>
				</port>
				<port id="1" precision="FP32">
					<dim>144</dim>
					<dim>1</dim>
					<dim>1</dim>
					<dim>1</dim>
				</port>
			</input>
			<output>
				<port id="2" precision="FP32">
					<dim>144</dim>
					<dim>24</dim>
					<dim>1</dim>
					<dim>1</dim>
				</port>
			</output>
		</layer>
		<layer id="313" name="Multiply_8807" type="Convolution" version="opset1">
			<data strides="1, 1" dilations="1, 1" pads_begin="0, 0" pads_end="0, 0" auto_pad="explicit" />
			<input>
				<port id="0" precision="FP32">
					<dim>1</dim>
					<dim>24</dim>
					<dim>56</dim>
					<dim>56</dim>
				</port>
				<port id="1" precision="FP32">
					<dim>144</dim>
					<dim>24</dim>
					<dim>1</dim>
					<dim>1</dim>
				</port>
			</input>
			<output>
				<port id="2" precision="FP32" names="/backbone/backbone.3/backbone.3.0/block/block.1/BatchNormalization_output_0">
					<dim>1</dim>
					<dim>144</dim>
					<dim>56</dim>
					<dim>56</dim>
				</port>
			</output>
		</layer>
		<layer id="314" name="/backbone/backbone.3/backbone.3.0/block/block.2/HardSwish" type="HSwish" version="opset4">
			<input>
				<port id="0" precision="FP32">
					<dim>1</dim>
					<dim>144</dim>
					<dim>56</dim>
					<dim>56</dim>
				</port>
			</input>
			<output>
				<port id="1" precision="FP32" names="/backbone/backbone.3/backbone.3.0/block/block.2/HardSwish_output_0">
					<dim>1</dim>
					<dim>144</dim>
					<dim>56</dim>
					<dim>56</dim>
				</port>
			</output>
		</layer>
		<layer id="315" name="/backbone/backbone.3/backbone.3.0/block/block.2/HardSwish/fq_output_0/input_low" type="Const" version="opset1">
			<data element_type="f32" shape="1, 144, 1, 1" offset="502220" size="576" />
			<output>
				<port id="0" precision="FP32">
					<dim>1</dim>
					<dim>144</dim>
					<dim>1</dim>
					<dim>1</dim>
				</port>
			</output>
		</layer>
		<layer id="316" name="/backbone/backbone.3/backbone.3.0/block/block.2/HardSwish/fq_output_0/input_high" type="Const" version="opset1">
			<data element_type="f32" shape="1, 144, 1, 1" offset="502796" size="576" />
			<output>
				<port id="0" precision="FP32">
					<dim>1</dim>
					<dim>144</dim>
					<dim>1</dim>
					<dim>1</dim>
				</port>
			</output>
		</layer>
		<layer id="317" name="/backbone/backbone.3/backbone.3.0/block/block.2/HardSwish/fq_output_0/output_low" type="Const" version="opset1">
			<data element_type="f32" shape="1, 144, 1, 1" offset="502220" size="576" />
			<output>
				<port id="0" precision="FP32">
					<dim>1</dim>
					<dim>144</dim>
					<dim>1</dim>
					<dim>1</dim>
				</port>
			</output>
		</layer>
		<layer id="318" name="/backbone/backbone.3/backbone.3.0/block/block.2/HardSwish/fq_output_0/output_high" type="Const" version="opset1">
			<data element_type="f32" shape="1, 144, 1, 1" offset="502796" size="576" />
			<output>
				<port id="0" precision="FP32">
					<dim>1</dim>
					<dim>144</dim>
					<dim>1</dim>
					<dim>1</dim>
				</port>
			</output>
		</layer>
		<layer id="319" name="/backbone/backbone.3/backbone.3.0/block/block.2/HardSwish/fq_output_0" type="FakeQuantize" version="opset1">
			<data levels="256" auto_broadcast="numpy" />
			<input>
				<port id="0" precision="FP32">
					<dim>1</dim>
					<dim>144</dim>
					<dim>56</dim>
					<dim>56</dim>
				</port>
				<port id="1" precision="FP32">
					<dim>1</dim>
					<dim>144</dim>
					<dim>1</dim>
					<dim>1</dim>
				</port>
				<port id="2" precision="FP32">
					<dim>1</dim>
					<dim>144</dim>
					<dim>1</dim>
					<dim>1</dim>
				</port>
				<port id="3" precision="FP32">
					<dim>1</dim>
					<dim>144</dim>
					<dim>1</dim>
					<dim>1</dim>
				</port>
				<port id="4" precision="FP32">
					<dim>1</dim>
					<dim>144</dim>
					<dim>1</dim>
					<dim>1</dim>
				</port>
			</input>
			<output>
				<port id="5" precision="FP32">
					<dim>1</dim>
					<dim>144</dim>
					<dim>56</dim>
					<dim>56</dim>
				</port>
			</output>
		</layer>
		<layer id="320" name="Constant_247923" type="Const" version="opset1">
			<data element_type="i8" shape="144, 1, 1, 5, 5" offset="503372" size="3600" />
			<output>
				<port id="0" precision="I8">
					<dim>144</dim>
					<dim>1</dim>
					<dim>1</dim>
					<dim>5</dim>
					<dim>5</dim>
				</port>
			</output>
		</layer>
		<layer id="321" name="Convert_247924" type="Convert" version="opset1">
			<data destination_type="f32" />
			<input>
				<port id="0" precision="I8">
					<dim>144</dim>
					<dim>1</dim>
					<dim>1</dim>
					<dim>5</dim>
					<dim>5</dim>
				</port>
			</input>
			<output>
				<port id="1" precision="FP32">
					<dim>144</dim>
					<dim>1</dim>
					<dim>1</dim>
					<dim>5</dim>
					<dim>5</dim>
				</port>
			</output>
		</layer>
		<layer id="322" name="Constant_247925" type="Const" version="opset1">
			<data element_type="f32" shape="144, 1, 1, 1, 1" offset="506972" size="576" />
			<output>
				<port id="0" precision="FP32">
					<dim>144</dim>
					<dim>1</dim>
					<dim>1</dim>
					<dim>1</dim>
					<dim>1</dim>
				</port>
			</output>
		</layer>
		<layer id="323" name="Multiply_8814/fq_weights_1" type="Multiply" version="opset1">
			<data auto_broadcast="numpy" />
			<input>
				<port id="0" precision="FP32">
					<dim>144</dim>
					<dim>1</dim>
					<dim>1</dim>
					<dim>5</dim>
					<dim>5</dim>
				</port>
				<port id="1" precision="FP32">
					<dim>144</dim>
					<dim>1</dim>
					<dim>1</dim>
					<dim>1</dim>
					<dim>1</dim>
				</port>
			</input>
			<output>
				<port id="2" precision="FP32">
					<dim>144</dim>
					<dim>1</dim>
					<dim>1</dim>
					<dim>5</dim>
					<dim>5</dim>
				</port>
			</output>
		</layer>
		<layer id="324" name="Multiply_8814" type="GroupConvolution" version="opset1">
			<data strides="2, 2" pads_begin="2, 2" pads_end="2, 2" dilations="1, 1" auto_pad="explicit" />
			<input>
				<port id="0" precision="FP32">
					<dim>1</dim>
					<dim>144</dim>
					<dim>56</dim>
					<dim>56</dim>
				</port>
				<port id="1" precision="FP32">
					<dim>144</dim>
					<dim>1</dim>
					<dim>1</dim>
					<dim>5</dim>
					<dim>5</dim>
				</port>
			</input>
			<output>
				<port id="2" precision="FP32" names="/backbone/backbone.3/backbone.3.0/block/block.3/Conv_output_0,/backbone/backbone.3/backbone.3.0/block/block.4/BatchNormalization_output_0">
					<dim>1</dim>
					<dim>144</dim>
					<dim>28</dim>
					<dim>28</dim>
				</port>
			</output>
		</layer>
		<layer id="325" name="/backbone/backbone.3/backbone.3.0/block/block.5/HardSwish" type="HSwish" version="opset4">
			<input>
				<port id="0" precision="FP32">
					<dim>1</dim>
					<dim>144</dim>
					<dim>28</dim>
					<dim>28</dim>
				</port>
			</input>
			<output>
				<port id="1" precision="FP32" names="/backbone/backbone.3/backbone.3.0/block/block.5/HardSwish_output_0">
					<dim>1</dim>
					<dim>144</dim>
					<dim>28</dim>
					<dim>28</dim>
				</port>
			</output>
		</layer>
		<layer id="326" name="/backbone/backbone.3/backbone.3.0/block/block.5/HardSwish/fq_output_0/input_low" type="Const" version="opset1">
			<data element_type="f32" shape="" offset="507548" size="4" />
			<output>
				<port id="0" precision="FP32" />
			</output>
		</layer>
		<layer id="327" name="/backbone/backbone.3/backbone.3.0/block/block.5/HardSwish/fq_output_0/input_high" type="Const" version="opset1">
			<data element_type="f32" shape="" offset="507552" size="4" />
			<output>
				<port id="0" precision="FP32" />
			</output>
		</layer>
		<layer id="328" name="/backbone/backbone.3/backbone.3.0/block/block.5/HardSwish/fq_output_0/output_low" type="Const" version="opset1">
			<data element_type="f32" shape="" offset="507548" size="4" />
			<output>
				<port id="0" precision="FP32" />
			</output>
		</layer>
		<layer id="329" name="/backbone/backbone.3/backbone.3.0/block/block.5/HardSwish/fq_output_0/output_high" type="Const" version="opset1">
			<data element_type="f32" shape="" offset="507552" size="4" />
			<output>
				<port id="0" precision="FP32" />
			</output>
		</layer>
		<layer id="330" name="/backbone/backbone.3/backbone.3.0/block/block.5/HardSwish/fq_output_0" type="FakeQuantize" version="opset1">
			<data levels="256" auto_broadcast="numpy" />
			<input>
				<port id="0" precision="FP32">
					<dim>1</dim>
					<dim>144</dim>
					<dim>28</dim>
					<dim>28</dim>
				</port>
				<port id="1" precision="FP32" />
				<port id="2" precision="FP32" />
				<port id="3" precision="FP32" />
				<port id="4" precision="FP32" />
			</input>
			<output>
				<port id="5" precision="FP32">
					<dim>1</dim>
					<dim>144</dim>
					<dim>28</dim>
					<dim>28</dim>
				</port>
			</output>
		</layer>
		<layer id="331" name="Range_445" type="Const" version="opset1">
			<data element_type="i64" shape="2" offset="19536" size="16" />
			<output>
				<port id="0" precision="I64">
					<dim>2</dim>
				</port>
			</output>
		</layer>
		<layer id="332" name="/backbone/backbone.3/backbone.3.0/block/block.6/avgpool/GlobalAveragePool" type="ReduceMean" version="opset1">
			<data keep_dims="true" />
			<input>
				<port id="0" precision="FP32">
					<dim>1</dim>
					<dim>144</dim>
					<dim>28</dim>
					<dim>28</dim>
				</port>
				<port id="1" precision="I64">
					<dim>2</dim>
				</port>
			</input>
			<output>
				<port id="2" precision="FP32" names="/backbone/backbone.3/backbone.3.0/block/block.6/avgpool/GlobalAveragePool_output_0">
					<dim>1</dim>
					<dim>144</dim>
					<dim>1</dim>
					<dim>1</dim>
				</port>
			</output>
		</layer>
		<layer id="333" name="/backbone/backbone.3/backbone.3.0/block/block.6/avgpool/GlobalAveragePool/fq_output_0/input_low" type="Const" version="opset1">
			<data element_type="f32" shape="" offset="507556" size="4" />
			<output>
				<port id="0" precision="FP32" />
			</output>
		</layer>
		<layer id="334" name="/backbone/backbone.3/backbone.3.0/block/block.6/avgpool/GlobalAveragePool/fq_output_0/input_high" type="Const" version="opset1">
			<data element_type="f32" shape="" offset="507560" size="4" />
			<output>
				<port id="0" precision="FP32" />
			</output>
		</layer>
		<layer id="335" name="/backbone/backbone.3/backbone.3.0/block/block.6/avgpool/GlobalAveragePool/fq_output_0/output_low" type="Const" version="opset1">
			<data element_type="f32" shape="" offset="507556" size="4" />
			<output>
				<port id="0" precision="FP32" />
			</output>
		</layer>
		<layer id="336" name="/backbone/backbone.3/backbone.3.0/block/block.6/avgpool/GlobalAveragePool/fq_output_0/output_high" type="Const" version="opset1">
			<data element_type="f32" shape="" offset="507560" size="4" />
			<output>
				<port id="0" precision="FP32" />
			</output>
		</layer>
		<layer id="337" name="/backbone/backbone.3/backbone.3.0/block/block.6/avgpool/GlobalAveragePool/fq_output_0" type="FakeQuantize" version="opset1">
			<data levels="256" auto_broadcast="numpy" />
			<input>
				<port id="0" precision="FP32">
					<dim>1</dim>
					<dim>144</dim>
					<dim>1</dim>
					<dim>1</dim>
				</port>
				<port id="1" precision="FP32" />
				<port id="2" precision="FP32" />
				<port id="3" precision="FP32" />
				<port id="4" precision="FP32" />
			</input>
			<output>
				<port id="5" precision="FP32">
					<dim>1</dim>
					<dim>144</dim>
					<dim>1</dim>
					<dim>1</dim>
				</port>
			</output>
		</layer>
		<layer id="338" name="Constant_247927" type="Const" version="opset1">
			<data element_type="i8" shape="6, 144, 1, 1" offset="507564" size="864" />
			<output>
				<port id="0" precision="I8">
					<dim>6</dim>
					<dim>144</dim>
					<dim>1</dim>
					<dim>1</dim>
				</port>
			</output>
		</layer>
		<layer id="339" name="Convert_247928" type="Convert" version="opset1">
			<data destination_type="f32" />
			<input>
				<port id="0" precision="I8">
					<dim>6</dim>
					<dim>144</dim>
					<dim>1</dim>
					<dim>1</dim>
				</port>
			</input>
			<output>
				<port id="1" precision="FP32">
					<dim>6</dim>
					<dim>144</dim>
					<dim>1</dim>
					<dim>1</dim>
				</port>
			</output>
		</layer>
		<layer id="340" name="Constant_247929" type="Const" version="opset1">
			<data element_type="f32" shape="6, 1, 1, 1" offset="508428" size="24" />
			<output>
				<port id="0" precision="FP32">
					<dim>6</dim>
					<dim>1</dim>
					<dim>1</dim>
					<dim>1</dim>
				</port>
			</output>
		</layer>
		<layer id="341" name="/backbone/backbone.3/backbone.3.0/block/block.6/fc1/Conv/WithoutBiases/fq_weights_1" type="Multiply" version="opset1">
			<data auto_broadcast="numpy" />
			<input>
				<port id="0" precision="FP32">
					<dim>6</dim>
					<dim>144</dim>
					<dim>1</dim>
					<dim>1</dim>
				</port>
				<port id="1" precision="FP32">
					<dim>6</dim>
					<dim>1</dim>
					<dim>1</dim>
					<dim>1</dim>
				</port>
			</input>
			<output>
				<port id="2" precision="FP32">
					<dim>6</dim>
					<dim>144</dim>
					<dim>1</dim>
					<dim>1</dim>
				</port>
			</output>
		</layer>
		<layer id="342" name="/backbone/backbone.3/backbone.3.0/block/block.6/fc1/Conv/WithoutBiases" type="Convolution" version="opset1">
			<data strides="1, 1" dilations="1, 1" pads_begin="0, 0" pads_end="0, 0" auto_pad="explicit" />
			<input>
				<port id="0" precision="FP32">
					<dim>1</dim>
					<dim>144</dim>
					<dim>1</dim>
					<dim>1</dim>
				</port>
				<port id="1" precision="FP32">
					<dim>6</dim>
					<dim>144</dim>
					<dim>1</dim>
					<dim>1</dim>
				</port>
			</input>
			<output>
				<port id="2" precision="FP32">
					<dim>1</dim>
					<dim>6</dim>
					<dim>1</dim>
					<dim>1</dim>
				</port>
			</output>
		</layer>
		<layer id="343" name="Reshape_462" type="Const" version="opset1">
			<data element_type="f32" shape="1, 6, 1, 1" offset="508452" size="24" />
			<output>
				<port id="0" precision="FP32">
					<dim>1</dim>
					<dim>6</dim>
					<dim>1</dim>
					<dim>1</dim>
				</port>
			</output>
		</layer>
		<layer id="344" name="/backbone/backbone.3/backbone.3.0/block/block.6/fc1/Conv" type="Add" version="opset1">
			<data auto_broadcast="numpy" />
			<input>
				<port id="0" precision="FP32">
					<dim>1</dim>
					<dim>6</dim>
					<dim>1</dim>
					<dim>1</dim>
				</port>
				<port id="1" precision="FP32">
					<dim>1</dim>
					<dim>6</dim>
					<dim>1</dim>
					<dim>1</dim>
				</port>
			</input>
			<output>
				<port id="2" precision="FP32" names="/backbone/backbone.3/backbone.3.0/block/block.6/fc1/Conv_output_0">
					<dim>1</dim>
					<dim>6</dim>
					<dim>1</dim>
					<dim>1</dim>
				</port>
			</output>
		</layer>
		<layer id="345" name="/backbone/backbone.3/backbone.3.0/block/block.6/activation/HardSwish" type="HSwish" version="opset4">
			<input>
				<port id="0" precision="FP32">
					<dim>1</dim>
					<dim>6</dim>
					<dim>1</dim>
					<dim>1</dim>
				</port>
			</input>
			<output>
				<port id="1" precision="FP32" names="/backbone/backbone.3/backbone.3.0/block/block.6/activation/HardSwish_output_0">
					<dim>1</dim>
					<dim>6</dim>
					<dim>1</dim>
					<dim>1</dim>
				</port>
			</output>
		</layer>
		<layer id="346" name="/backbone/backbone.3/backbone.3.0/block/block.6/activation/HardSwish/fq_output_0/input_low" type="Const" version="opset1">
			<data element_type="f32" shape="" offset="508476" size="4" />
			<output>
				<port id="0" precision="FP32" />
			</output>
		</layer>
		<layer id="347" name="/backbone/backbone.3/backbone.3.0/block/block.6/activation/HardSwish/fq_output_0/input_high" type="Const" version="opset1">
			<data element_type="f32" shape="" offset="508480" size="4" />
			<output>
				<port id="0" precision="FP32" />
			</output>
		</layer>
		<layer id="348" name="/backbone/backbone.3/backbone.3.0/block/block.6/activation/HardSwish/fq_output_0/output_low" type="Const" version="opset1">
			<data element_type="f32" shape="" offset="508476" size="4" />
			<output>
				<port id="0" precision="FP32" />
			</output>
		</layer>
		<layer id="349" name="/backbone/backbone.3/backbone.3.0/block/block.6/activation/HardSwish/fq_output_0/output_high" type="Const" version="opset1">
			<data element_type="f32" shape="" offset="508480" size="4" />
			<output>
				<port id="0" precision="FP32" />
			</output>
		</layer>
		<layer id="350" name="/backbone/backbone.3/backbone.3.0/block/block.6/activation/HardSwish/fq_output_0" type="FakeQuantize" version="opset1">
			<data levels="256" auto_broadcast="numpy" />
			<input>
				<port id="0" precision="FP32">
					<dim>1</dim>
					<dim>6</dim>
					<dim>1</dim>
					<dim>1</dim>
				</port>
				<port id="1" precision="FP32" />
				<port id="2" precision="FP32" />
				<port id="3" precision="FP32" />
				<port id="4" precision="FP32" />
			</input>
			<output>
				<port id="5" precision="FP32">
					<dim>1</dim>
					<dim>6</dim>
					<dim>1</dim>
					<dim>1</dim>
				</port>
			</output>
		</layer>
		<layer id="351" name="Constant_247931" type="Const" version="opset1">
			<data element_type="i8" shape="144, 6, 1, 1" offset="508484" size="864" />
			<output>
				<port id="0" precision="I8">
					<dim>144</dim>
					<dim>6</dim>
					<dim>1</dim>
					<dim>1</dim>
				</port>
			</output>
		</layer>
		<layer id="352" name="Convert_247932" type="Convert" version="opset1">
			<data destination_type="f32" />
			<input>
				<port id="0" precision="I8">
					<dim>144</dim>
					<dim>6</dim>
					<dim>1</dim>
					<dim>1</dim>
				</port>
			</input>
			<output>
				<port id="1" precision="FP32">
					<dim>144</dim>
					<dim>6</dim>
					<dim>1</dim>
					<dim>1</dim>
				</port>
			</output>
		</layer>
		<layer id="353" name="Constant_247933" type="Const" version="opset1">
			<data element_type="f32" shape="144, 1, 1, 1" offset="509348" size="576" />
			<output>
				<port id="0" precision="FP32">
					<dim>144</dim>
					<dim>1</dim>
					<dim>1</dim>
					<dim>1</dim>
				</port>
			</output>
		</layer>
		<layer id="354" name="/backbone/backbone.3/backbone.3.0/block/block.6/fc2/Conv/WithoutBiases/fq_weights_1" type="Multiply" version="opset1">
			<data auto_broadcast="numpy" />
			<input>
				<port id="0" precision="FP32">
					<dim>144</dim>
					<dim>6</dim>
					<dim>1</dim>
					<dim>1</dim>
				</port>
				<port id="1" precision="FP32">
					<dim>144</dim>
					<dim>1</dim>
					<dim>1</dim>
					<dim>1</dim>
				</port>
			</input>
			<output>
				<port id="2" precision="FP32">
					<dim>144</dim>
					<dim>6</dim>
					<dim>1</dim>
					<dim>1</dim>
				</port>
			</output>
		</layer>
		<layer id="355" name="/backbone/backbone.3/backbone.3.0/block/block.6/fc2/Conv/WithoutBiases" type="Convolution" version="opset1">
			<data strides="1, 1" dilations="1, 1" pads_begin="0, 0" pads_end="0, 0" auto_pad="explicit" />
			<input>
				<port id="0" precision="FP32">
					<dim>1</dim>
					<dim>6</dim>
					<dim>1</dim>
					<dim>1</dim>
				</port>
				<port id="1" precision="FP32">
					<dim>144</dim>
					<dim>6</dim>
					<dim>1</dim>
					<dim>1</dim>
				</port>
			</input>
			<output>
				<port id="2" precision="FP32">
					<dim>1</dim>
					<dim>144</dim>
					<dim>1</dim>
					<dim>1</dim>
				</port>
			</output>
		</layer>
		<layer id="356" name="Reshape_478" type="Const" version="opset1">
			<data element_type="f32" shape="1, 144, 1, 1" offset="509924" size="576" />
			<output>
				<port id="0" precision="FP32">
					<dim>1</dim>
					<dim>144</dim>
					<dim>1</dim>
					<dim>1</dim>
				</port>
			</output>
		</layer>
		<layer id="357" name="/backbone/backbone.3/backbone.3.0/block/block.6/fc2/Conv" type="Add" version="opset1">
			<data auto_broadcast="numpy" />
			<input>
				<port id="0" precision="FP32">
					<dim>1</dim>
					<dim>144</dim>
					<dim>1</dim>
					<dim>1</dim>
				</port>
				<port id="1" precision="FP32">
					<dim>1</dim>
					<dim>144</dim>
					<dim>1</dim>
					<dim>1</dim>
				</port>
			</input>
			<output>
				<port id="2" precision="FP32" names="/backbone/backbone.3/backbone.3.0/block/block.6/fc2/Conv_output_0">
					<dim>1</dim>
					<dim>144</dim>
					<dim>1</dim>
					<dim>1</dim>
				</port>
			</output>
		</layer>
		<layer id="358" name="/backbone/backbone.3/backbone.3.0/block/block.6/scale_activation/Sigmoid" type="Sigmoid" version="opset1">
			<input>
				<port id="0" precision="FP32">
					<dim>1</dim>
					<dim>144</dim>
					<dim>1</dim>
					<dim>1</dim>
				</port>
			</input>
			<output>
				<port id="1" precision="FP32" names="/backbone/backbone.3/backbone.3.0/block/block.6/scale_activation/Sigmoid_output_0">
					<dim>1</dim>
					<dim>144</dim>
					<dim>1</dim>
					<dim>1</dim>
				</port>
			</output>
		</layer>
		<layer id="359" name="Constant_9421" type="Const" version="opset1">
			<data element_type="f32" shape="1, 1, 1, 1" offset="0" size="4" />
			<output>
				<port id="0" precision="FP32">
					<dim>1</dim>
					<dim>1</dim>
					<dim>1</dim>
					<dim>1</dim>
				</port>
			</output>
		</layer>
		<layer id="360" name="Constant_9422" type="Const" version="opset1">
			<data element_type="f32" shape="1, 1, 1, 1" offset="476056" size="4" />
			<output>
				<port id="0" precision="FP32">
					<dim>1</dim>
					<dim>1</dim>
					<dim>1</dim>
					<dim>1</dim>
				</port>
			</output>
		</layer>
		<layer id="361" name="Constant_9423" type="Const" version="opset1">
			<data element_type="f32" shape="1, 1, 1, 1" offset="0" size="4" />
			<output>
				<port id="0" precision="FP32">
					<dim>1</dim>
					<dim>1</dim>
					<dim>1</dim>
					<dim>1</dim>
				</port>
			</output>
		</layer>
		<layer id="362" name="Constant_9424" type="Const" version="opset1">
			<data element_type="f32" shape="1, 1, 1, 1" offset="476056" size="4" />
			<output>
				<port id="0" precision="FP32">
					<dim>1</dim>
					<dim>1</dim>
					<dim>1</dim>
					<dim>1</dim>
				</port>
			</output>
		</layer>
		<layer id="363" name="/backbone/backbone.3/backbone.3.0/block/block.6/activation_post_process_3/DequantizeLinear" type="FakeQuantize" version="opset1">
			<data levels="256" auto_broadcast="numpy" />
			<input>
				<port id="0" precision="FP32">
					<dim>1</dim>
					<dim>144</dim>
					<dim>1</dim>
					<dim>1</dim>
				</port>
				<port id="1" precision="FP32">
					<dim>1</dim>
					<dim>1</dim>
					<dim>1</dim>
					<dim>1</dim>
				</port>
				<port id="2" precision="FP32">
					<dim>1</dim>
					<dim>1</dim>
					<dim>1</dim>
					<dim>1</dim>
				</port>
				<port id="3" precision="FP32">
					<dim>1</dim>
					<dim>1</dim>
					<dim>1</dim>
					<dim>1</dim>
				</port>
				<port id="4" precision="FP32">
					<dim>1</dim>
					<dim>1</dim>
					<dim>1</dim>
					<dim>1</dim>
				</port>
			</input>
			<output>
…
		<edge from-layer="695" from-port="2" to-layer="700" to-port="0" />
		<edge from-layer="696" from-port="0" to-layer="700" to-port="1" />
		<edge from-layer="697" from-port="0" to-layer="700" to-port="2" />
		<edge from-layer="698" from-port="0" to-layer="700" to-port="3" />
		<edge from-layer="699" from-port="0" to-layer="700" to-port="4" />
		<edge from-layer="700" from-port="5" to-layer="701" to-port="1" />
		<edge from-layer="701" from-port="2" to-layer="706" to-port="0" />
		<edge from-layer="702" from-port="0" to-layer="706" to-port="1" />
		<edge from-layer="703" from-port="0" to-layer="706" to-port="2" />
		<edge from-layer="704" from-port="0" to-layer="706" to-port="3" />
		<edge from-layer="705" from-port="0" to-layer="706" to-port="4" />
		<edge from-layer="706" from-port="5" to-layer="711" to-port="0" />
		<edge from-layer="707" from-port="0" to-layer="708" to-port="0" />
		<edge from-layer="708" from-port="1" to-layer="710" to-port="0" />
		<edge from-layer="709" from-port="0" to-layer="710" to-port="1" />
		<edge from-layer="710" from-port="2" to-layer="711" to-port="1" />
		<edge from-layer="711" from-port="2" to-layer="712" to-port="0" />
		<edge from-layer="712" from-port="1" to-layer="717" to-port="0" />
		<edge from-layer="713" from-port="0" to-layer="717" to-port="1" />
		<edge from-layer="714" from-port="0" to-layer="717" to-port="2" />
		<edge from-layer="715" from-port="0" to-layer="717" to-port="3" />
		<edge from-layer="716" from-port="0" to-layer="717" to-port="4" />
		<edge from-layer="717" from-port="5" to-layer="722" to-port="0" />
		<edge from-layer="718" from-port="0" to-layer="719" to-port="0" />
		<edge from-layer="719" from-port="1" to-layer="721" to-port="0" />
		<edge from-layer="720" from-port="0" to-layer="721" to-port="1" />
		<edge from-layer="721" from-port="2" to-layer="722" to-port="1" />
		<edge from-layer="722" from-port="2" to-layer="723" to-port="0" />
		<edge from-layer="723" from-port="1" to-layer="728" to-port="0" />
		<edge from-layer="724" from-port="0" to-layer="728" to-port="1" />
		<edge from-layer="725" from-port="0" to-layer="728" to-port="2" />
		<edge from-layer="726" from-port="0" to-layer="728" to-port="3" />
		<edge from-layer="727" from-port="0" to-layer="728" to-port="4" />
		<edge from-layer="728" from-port="5" to-layer="730" to-port="0" />
		<edge from-layer="728" from-port="5" to-layer="767" to-port="0" />
		<edge from-layer="729" from-port="0" to-layer="730" to-port="1" />
		<edge from-layer="730" from-port="2" to-layer="735" to-port="0" />
		<edge from-layer="731" from-port="0" to-layer="735" to-port="1" />
		<edge from-layer="732" from-port="0" to-layer="735" to-port="2" />
		<edge from-layer="733" from-port="0" to-layer="735" to-port="3" />
		<edge from-layer="734" from-port="0" to-layer="735" to-port="4" />
		<edge from-layer="735" from-port="5" to-layer="740" to-port="0" />
		<edge from-layer="736" from-port="0" to-layer="737" to-port="0" />
		<edge from-layer="737" from-port="1" to-layer="739" to-port="0" />
		<edge from-layer="738" from-port="0" to-layer="739" to-port="1" />
		<edge from-layer="739" from-port="2" to-layer="740" to-port="1" />
		<edge from-layer="740" from-port="2" to-layer="742" to-port="0" />
		<edge from-layer="741" from-port="0" to-layer="742" to-port="1" />
		<edge from-layer="742" from-port="2" to-layer="743" to-port="0" />
		<edge from-layer="743" from-port="1" to-layer="748" to-port="0" />
		<edge from-layer="744" from-port="0" to-layer="748" to-port="1" />
		<edge from-layer="745" from-port="0" to-layer="748" to-port="2" />
		<edge from-layer="746" from-port="0" to-layer="748" to-port="3" />
		<edge from-layer="747" from-port="0" to-layer="748" to-port="4" />
		<edge from-layer="748" from-port="5" to-layer="753" to-port="0" />
		<edge from-layer="749" from-port="0" to-layer="750" to-port="0" />
		<edge from-layer="750" from-port="1" to-layer="752" to-port="0" />
		<edge from-layer="751" from-port="0" to-layer="752" to-port="1" />
		<edge from-layer="752" from-port="2" to-layer="753" to-port="1" />
		<edge from-layer="753" from-port="2" to-layer="755" to-port="0" />
		<edge from-layer="754" from-port="0" to-layer="755" to-port="1" />
		<edge from-layer="755" from-port="2" to-layer="756" to-port="0" />
		<edge from-layer="756" from-port="1" to-layer="761" to-port="0" />
		<edge from-layer="757" from-port="0" to-layer="761" to-port="1" />
		<edge from-layer="758" from-port="0" to-layer="761" to-port="2" />
		<edge from-layer="759" from-port="0" to-layer="761" to-port="3" />
		<edge from-layer="760" from-port="0" to-layer="761" to-port="4" />
		<edge from-layer="761" from-port="5" to-layer="766" to-port="0" />
		<edge from-layer="762" from-port="0" to-layer="766" to-port="1" />
		<edge from-layer="763" from-port="0" to-layer="766" to-port="2" />
		<edge from-layer="764" from-port="0" to-layer="766" to-port="3" />
		<edge from-layer="765" from-port="0" to-layer="766" to-port="4" />
		<edge from-layer="766" from-port="5" to-layer="767" to-port="1" />
		<edge from-layer="767" from-port="2" to-layer="772" to-port="0" />
		<edge from-layer="768" from-port="0" to-layer="772" to-port="1" />
		<edge from-layer="769" from-port="0" to-layer="772" to-port="2" />
		<edge from-layer="770" from-port="0" to-layer="772" to-port="3" />
		<edge from-layer="771" from-port="0" to-layer="772" to-port="4" />
		<edge from-layer="772" from-port="5" to-layer="777" to-port="0" />
		<edge from-layer="773" from-port="0" to-layer="774" to-port="0" />
		<edge from-layer="774" from-port="1" to-layer="776" to-port="0" />
		<edge from-layer="775" from-port="0" to-layer="776" to-port="1" />
		<edge from-layer="776" from-port="2" to-layer="777" to-port="1" />
		<edge from-layer="777" from-port="2" to-layer="782" to-port="0" />
		<edge from-layer="778" from-port="0" to-layer="782" to-port="1" />
		<edge from-layer="779" from-port="0" to-layer="782" to-port="2" />
		<edge from-layer="780" from-port="0" to-layer="782" to-port="3" />
		<edge from-layer="781" from-port="0" to-layer="782" to-port="4" />
		<edge from-layer="782" from-port="5" to-layer="859" to-port="0" />
		<edge from-layer="782" from-port="5" to-layer="787" to-port="0" />
		<edge from-layer="783" from-port="0" to-layer="784" to-port="0" />
		<edge from-layer="784" from-port="1" to-layer="786" to-port="0" />
		<edge from-layer="785" from-port="0" to-layer="786" to-port="1" />
		<edge from-layer="786" from-port="2" to-layer="787" to-port="1" />
		<edge from-layer="787" from-port="2" to-layer="788" to-port="0" />
		<edge from-layer="788" from-port="1" to-layer="793" to-port="0" />
		<edge from-layer="789" from-port="0" to-layer="793" to-port="1" />
		<edge from-layer="790" from-port="0" to-layer="793" to-port="2" />
		<edge from-layer="791" from-port="0" to-layer="793" to-port="3" />
		<edge from-layer="792" from-port="0" to-layer="793" to-port="4" />
		<edge from-layer="793" from-port="5" to-layer="798" to-port="0" />
		<edge from-layer="794" from-port="0" to-layer="795" to-port="0" />
		<edge from-layer="795" from-port="1" to-layer="797" to-port="0" />
		<edge from-layer="796" from-port="0" to-layer="797" to-port="1" />
		<edge from-layer="797" from-port="2" to-layer="798" to-port="1" />
		<edge from-layer="798" from-port="2" to-layer="799" to-port="0" />
		<edge from-layer="799" from-port="1" to-layer="804" to-port="0" />
		<edge from-layer="800" from-port="0" to-layer="804" to-port="1" />
		<edge from-layer="801" from-port="0" to-layer="804" to-port="2" />
		<edge from-layer="802" from-port="0" to-layer="804" to-port="3" />
		<edge from-layer="803" from-port="0" to-layer="804" to-port="4" />
		<edge from-layer="804" from-port="5" to-layer="806" to-port="0" />
		<edge from-layer="804" from-port="5" to-layer="843" to-port="0" />
		<edge from-layer="805" from-port="0" to-layer="806" to-port="1" />
		<edge from-layer="806" from-port="2" to-layer="811" to-port="0" />
		<edge from-layer="807" from-port="0" to-layer="811" to-port="1" />
		<edge from-layer="808" from-port="0" to-layer="811" to-port="2" />
		<edge from-layer="809" from-port="0" to-layer="811" to-port="3" />
		<edge from-layer="810" from-port="0" to-layer="811" to-port="4" />
		<edge from-layer="811" from-port="5" to-layer="816" to-port="0" />
		<edge from-layer="812" from-port="0" to-layer="813" to-port="0" />
		<edge from-layer="813" from-port="1" to-layer="815" to-port="0" />
		<edge from-layer="814" from-port="0" to-layer="815" to-port="1" />
		<edge from-layer="815" from-port="2" to-layer="816" to-port="1" />
		<edge from-layer="816" from-port="2" to-layer="818" to-port="0" />
		<edge from-layer="817" from-port="0" to-layer="818" to-port="1" />
		<edge from-layer="818" from-port="2" to-layer="819" to-port="0" />
		<edge from-layer="819" from-port="1" to-layer="824" to-port="0" />
		<edge from-layer="820" from-port="0" to-layer="824" to-port="1" />
		<edge from-layer="821" from-port="0" to-layer="824" to-port="2" />
		<edge from-layer="822" from-port="0" to-layer="824" to-port="3" />
		<edge from-layer="823" from-port="0" to-layer="824" to-port="4" />
		<edge from-layer="824" from-port="5" to-layer="829" to-port="0" />
		<edge from-layer="825" from-port="0" to-layer="826" to-port="0" />
		<edge from-layer="826" from-port="1" to-layer="828" to-port="0" />
		<edge from-layer="827" from-port="0" to-layer="828" to-port="1" />
		<edge from-layer="828" from-port="2" to-layer="829" to-port="1" />
		<edge from-layer="829" from-port="2" to-layer="831" to-port="0" />
		<edge from-layer="830" from-port="0" to-layer="831" to-port="1" />
		<edge from-layer="831" from-port="2" to-layer="832" to-port="0" />
		<edge from-layer="832" from-port="1" to-layer="837" to-port="0" />
		<edge from-layer="833" from-port="0" to-layer="837" to-port="1" />
		<edge from-layer="834" from-port="0" to-layer="837" to-port="2" />
		<edge from-layer="835" from-port="0" to-layer="837" to-port="3" />
		<edge from-layer="836" from-port="0" to-layer="837" to-port="4" />
		<edge from-layer="837" from-port="5" to-layer="842" to-port="0" />
		<edge from-layer="838" from-port="0" to-layer="842" to-port="1" />
		<edge from-layer="839" from-port="0" to-layer="842" to-port="2" />
		<edge from-layer="840" from-port="0" to-layer="842" to-port="3" />
		<edge from-layer="841" from-port="0" to-layer="842" to-port="4" />
		<edge from-layer="842" from-port="5" to-layer="843" to-port="1" />
		<edge from-layer="843" from-port="2" to-layer="848" to-port="0" />
		<edge from-layer="844" from-port="0" to-layer="848" to-port="1" />
		<edge from-layer="845" from-port="0" to-layer="848" to-port="2" />
		<edge from-layer="846" from-port="0" to-layer="848" to-port="3" />
		<edge from-layer="847" from-port="0" to-layer="848" to-port="4" />
		<edge from-layer="848" from-port="5" to-layer="853" to-port="0" />
		<edge from-layer="849" from-port="0" to-layer="850" to-port="0" />
		<edge from-layer="850" from-port="1" to-layer="852" to-port="0" />
		<edge from-layer="851" from-port="0" to-layer="852" to-port="1" />
		<edge from-layer="852" from-port="2" to-layer="853" to-port="1" />
		<edge from-layer="853" from-port="2" to-layer="858" to-port="0" />
		<edge from-layer="854" from-port="0" to-layer="858" to-port="1" />
		<edge from-layer="855" from-port="0" to-layer="858" to-port="2" />
		<edge from-layer="856" from-port="0" to-layer="858" to-port="3" />
		<edge from-layer="857" from-port="0" to-layer="858" to-port="4" />
		<edge from-layer="858" from-port="5" to-layer="859" to-port="1" />
		<edge from-layer="859" from-port="2" to-layer="864" to-port="0" />
		<edge from-layer="860" from-port="0" to-layer="864" to-port="1" />
		<edge from-layer="861" from-port="0" to-layer="864" to-port="2" />
		<edge from-layer="862" from-port="0" to-layer="864" to-port="3" />
		<edge from-layer="863" from-port="0" to-layer="864" to-port="4" />
		<edge from-layer="864" from-port="5" to-layer="869" to-port="0" />
		<edge from-layer="864" from-port="5" to-layer="941" to-port="0" />
		<edge from-layer="865" from-port="0" to-layer="866" to-port="0" />
		<edge from-layer="866" from-port="1" to-layer="868" to-port="0" />
		<edge from-layer="867" from-port="0" to-layer="868" to-port="1" />
		<edge from-layer="868" from-port="2" to-layer="869" to-port="1" />
		<edge from-layer="869" from-port="2" to-layer="870" to-port="0" />
		<edge from-layer="870" from-port="1" to-layer="875" to-port="0" />
		<edge from-layer="871" from-port="0" to-layer="875" to-port="1" />
		<edge from-layer="872" from-port="0" to-layer="875" to-port="2" />
		<edge from-layer="873" from-port="0" to-layer="875" to-port="3" />
		<edge from-layer="874" from-port="0" to-layer="875" to-port="4" />
		<edge from-layer="875" from-port="5" to-layer="880" to-port="0" />
		<edge from-layer="876" from-port="0" to-layer="877" to-port="0" />
		<edge from-layer="877" from-port="1" to-layer="879" to-port="0" />
		<edge from-layer="878" from-port="0" to-layer="879" to-port="1" />
		<edge from-layer="879" from-port="2" to-layer="880" to-port="1" />
		<edge from-layer="880" from-port="2" to-layer="881" to-port="0" />
		<edge from-layer="881" from-port="1" to-layer="886" to-port="0" />
		<edge from-layer="882" from-port="0" to-layer="886" to-port="1" />
		<edge from-layer="883" from-port="0" to-layer="886" to-port="2" />
		<edge from-layer="884" from-port="0" to-layer="886" to-port="3" />
		<edge from-layer="885" from-port="0" to-layer="886" to-port="4" />
		<edge from-layer="886" from-port="5" to-layer="888" to-port="0" />
		<edge from-layer="886" from-port="5" to-layer="925" to-port="0" />
		<edge from-layer="887" from-port="0" to-layer="888" to-port="1" />
		<edge from-layer="888" from-port="2" to-layer="893" to-port="0" />
		<edge from-layer="889" from-port="0" to-layer="893" to-port="1" />
		<edge from-layer="890" from-port="0" to-layer="893" to-port="2" />
		<edge from-layer="891" from-port="0" to-layer="893" to-port="3" />
		<edge from-layer="892" from-port="0" to-layer="893" to-port="4" />
		<edge from-layer="893" from-port="5" to-layer="898" to-port="0" />
		<edge from-layer="894" from-port="0" to-layer="895" to-port="0" />
		<edge from-layer="895" from-port="1" to-layer="897" to-port="0" />
		<edge from-layer="896" from-port="0" to-layer="897" to-port="1" />
		<edge from-layer="897" from-port="2" to-layer="898" to-port="1" />
		<edge from-layer="898" from-port="2" to-layer="900" to-port="0" />
		<edge from-layer="899" from-port="0" to-layer="900" to-port="1" />
		<edge from-layer="900" from-port="2" to-layer="901" to-port="0" />
		<edge from-layer="901" from-port="1" to-layer="906" to-port="0" />
		<edge from-layer="902" from-port="0" to-layer="906" to-port="1" />
		<edge from-layer="903" from-port="0" to-layer="906" to-port="2" />
		<edge from-layer="904" from-port="0" to-layer="906" to-port="3" />
		<edge from-layer="905" from-port="0" to-layer="906" to-port="4" />
		<edge from-layer="906" from-port="5" to-layer="911" to-port="0" />
		<edge from-layer="907" from-port="0" to-layer="908" to-port="0" />
		<edge from-layer="908" from-port="1" to-layer="910" to-port="0" />
		<edge from-layer="909" from-port="0" to-layer="910" to-port="1" />
		<edge from-layer="910" from-port="2" to-layer="911" to-port="1" />
		<edge from-layer="911" from-port="2" to-layer="913" to-port="0" />
		<edge from-layer="912" from-port="0" to-layer="913" to-port="1" />
		<edge from-layer="913" from-port="2" to-layer="914" to-port="0" />
		<edge from-layer="914" from-port="1" to-layer="919" to-port="0" />
		<edge from-layer="915" from-port="0" to-layer="919" to-port="1" />
		<edge from-layer="916" from-port="0" to-layer="919" to-port="2" />
		<edge from-layer="917" from-port="0" to-layer="919" to-port="3" />
		<edge from-layer="918" from-port="0" to-layer="919" to-port="4" />
		<edge from-layer="919" from-port="5" to-layer="924" to-port="0" />
		<edge from-layer="920" from-port="0" to-layer="924" to-port="1" />
		<edge from-layer="921" from-port="0" to-layer="924" to-port="2" />
		<edge from-layer="922" from-port="0" to-layer="924" to-port="3" />
		<edge from-layer="923" from-port="0" to-layer="924" to-port="4" />
		<edge from-layer="924" from-port="5" to-layer="925" to-port="1" />
		<edge from-layer="925" from-port="2" to-layer="930" to-port="0" />
		<edge from-layer="926" from-port="0" to-layer="930" to-port="1" />
		<edge from-layer="927" from-port="0" to-layer="930" to-port="2" />
		<edge from-layer="928" from-port="0" to-layer="930" to-port="3" />
		<edge from-layer="929" from-port="0" to-layer="930" to-port="4" />
		<edge from-layer="930" from-port="5" to-layer="935" to-port="0" />
		<edge from-layer="931" from-port="0" to-layer="932" to-port="0" />
		<edge from-layer="932" from-port="1" to-layer="934" to-port="0" />
		<edge from-layer="933" from-port="0" to-layer="934" to-port="1" />
		<edge from-layer="934" from-port="2" to-layer="935" to-port="1" />
		<edge from-layer="935" from-port="2" to-layer="940" to-port="0" />
		<edge from-layer="936" from-port="0" to-layer="940" to-port="1" />
		<edge from-layer="937" from-port="0" to-layer="940" to-port="2" />
		<edge from-layer="938" from-port="0" to-layer="940" to-port="3" />
		<edge from-layer="939" from-port="0" to-layer="940" to-port="4" />
		<edge from-layer="940" from-port="5" to-layer="941" to-port="1" />
		<edge from-layer="941" from-port="2" to-layer="946" to-port="0" />
		<edge from-layer="942" from-port="0" to-layer="946" to-port="1" />
		<edge from-layer="943" from-port="0" to-layer="946" to-port="2" />
		<edge from-layer="944" from-port="0" to-layer="946" to-port="3" />
		<edge from-layer="945" from-port="0" to-layer="946" to-port="4" />
		<edge from-layer="946" from-port="5" to-layer="951" to-port="0" />
		<edge from-layer="947" from-port="0" to-layer="948" to-port="0" />
		<edge from-layer="948" from-port="1" to-layer="950" to-port="0" />
		<edge from-layer="949" from-port="0" to-layer="950" to-port="1" />
		<edge from-layer="950" from-port="2" to-layer="951" to-port="1" />
		<edge from-layer="951" from-port="2" to-layer="952" to-port="0" />
		<edge from-layer="952" from-port="1" to-layer="957" to-port="0" />
		<edge from-layer="953" from-port="0" to-layer="957" to-port="1" />
		<edge from-layer="954" from-port="0" to-layer="957" to-port="2" />
		<edge from-layer="955" from-port="0" to-layer="957" to-port="3" />
		<edge from-layer="956" from-port="0" to-layer="957" to-port="4" />
		<edge from-layer="957" from-port="5" to-layer="962" to-port="0" />
		<edge from-layer="958" from-port="0" to-layer="959" to-port="0" />
		<edge from-layer="959" from-port="1" to-layer="961" to-port="0" />
		<edge from-layer="960" from-port="0" to-layer="961" to-port="1" />
		<edge from-layer="961" from-port="2" to-layer="962" to-port="1" />
		<edge from-layer="962" from-port="2" to-layer="963" to-port="0" />
		<edge from-layer="963" from-port="1" to-layer="968" to-port="0" />
		<edge from-layer="964" from-port="0" to-layer="968" to-port="1" />
		<edge from-layer="965" from-port="0" to-layer="968" to-port="2" />
		<edge from-layer="966" from-port="0" to-layer="968" to-port="3" />
		<edge from-layer="967" from-port="0" to-layer="968" to-port="4" />
		<edge from-layer="968" from-port="5" to-layer="970" to-port="0" />
		<edge from-layer="968" from-port="5" to-layer="1007" to-port="0" />
		<edge from-layer="969" from-port="0" to-layer="970" to-port="1" />
		<edge from-layer="970" from-port="2" to-layer="975" to-port="0" />
		<edge from-layer="971" from-port="0" to-layer="975" to-port="1" />
		<edge from-layer="972" from-port="0" to-layer="975" to-port="2" />
		<edge from-layer="973" from-port="0" to-layer="975" to-port="3" />
		<edge from-layer="974" from-port="0" to-layer="975" to-port="4" />
		<edge from-layer="975" from-port="5" to-layer="980" to-port="0" />
		<edge from-layer="976" from-port="0" to-layer="977" to-port="0" />
		<edge from-layer="977" from-port="1" to-layer="979" to-port="0" />
		<edge from-layer="978" from-port="0" to-layer="979" to-port="1" />
		<edge from-layer="979" from-port="2" to-layer="980" to-port="1" />
		<edge from-layer="980" from-port="2" to-layer="982" to-port="0" />
		<edge from-layer="981" from-port="0" to-layer="982" to-port="1" />
		<edge from-layer="982" from-port="2" to-layer="983" to-port="0" />
		<edge from-layer="983" from-port="1" to-layer="988" to-port="0" />
		<edge from-layer="984" from-port="0" to-layer="988" to-port="1" />
		<edge from-layer="985" from-port="0" to-layer="988" to-port="2" />
		<edge from-layer="986" from-port="0" to-layer="988" to-port="3" />
		<edge from-layer="987" from-port="0" to-layer="988" to-port="4" />
		<edge from-layer="988" from-port="5" to-layer="993" to-port="0" />
		<edge from-layer="989" from-port="0" to-layer="990" to-port="0" />
		<edge from-layer="990" from-port="1" to-layer="992" to-port="0" />
		<edge from-layer="991" from-port="0" to-layer="992" to-port="1" />
		<edge from-layer="992" from-port="2" to-layer="993" to-port="1" />
		<edge from-layer="993" from-port="2" to-layer="995" to-port="0" />
		<edge from-layer="994" from-port="0" to-layer="995" to-port="1" />
		<edge from-layer="995" from-port="2" to-layer="996" to-port="0" />
		<edge from-layer="996" from-port="1" to-layer="1001" to-port="0" />
		<edge from-layer="997" from-port="0" to-layer="1001" to-port="1" />
		<edge from-layer="998" from-port="0" to-layer="1001" to-port="2" />
		<edge from-layer="999" from-port="0" to-layer="1001" to-port="3" />
		<edge from-layer="1000" from-port="0" to-layer="1001" to-port="4" />
		<edge from-layer="1001" from-port="5" to-layer="1006" to-port="0" />
		<edge from-layer="1002" from-port="0" to-layer="1006" to-port="1" />
		<edge from-layer="1003" from-port="0" to-layer="1006" to-port="2" />
		<edge from-layer="1004" from-port="0" to-layer="1006" to-port="3" />
		<edge from-layer="1005" from-port="0" to-layer="1006" to-port="4" />
		<edge from-layer="1006" from-port="5" to-layer="1007" to-port="1" />
		<edge from-layer="1007" from-port="2" to-layer="1012" to-port="0" />
		<edge from-layer="1008" from-port="0" to-layer="1012" to-port="1" />
		<edge from-layer="1009" from-port="0" to-layer="1012" to-port="2" />
		<edge from-layer="1010" from-port="0" to-layer="1012" to-port="3" />
		<edge from-layer="1011" from-port="0" to-layer="1012" to-port="4" />
		<edge from-layer="1012" from-port="5" to-layer="1017" to-port="0" />
		<edge from-layer="1013" from-port="0" to-layer="1014" to-port="0" />
		<edge from-layer="1014" from-port="1" to-layer="1016" to-port="0" />
		<edge from-layer="1015" from-port="0" to-layer="1016" to-port="1" />
		<edge from-layer="1016" from-port="2" to-layer="1017" to-port="1" />
		<edge from-layer="1017" from-port="2" to-layer="1022" to-port="0" />
		<edge from-layer="1018" from-port="0" to-layer="1022" to-port="1" />
		<edge from-layer="1019" from-port="0" to-layer="1022" to-port="2" />
		<edge from-layer="1020" from-port="0" to-layer="1022" to-port="3" />
		<edge from-layer="1021" from-port="0" to-layer="1022" to-port="4" />
		<edge from-layer="1022" from-port="5" to-layer="1027" to-port="0" />
		<edge from-layer="1022" from-port="5" to-layer="1099" to-port="0" />
		<edge from-layer="1023" from-port="0" to-layer="1024" to-port="0" />
		<edge from-layer="1024" from-port="1" to-layer="1026" to-port="0" />
		<edge from-layer="1025" from-port="0" to-layer="1026" to-port="1" />
		<edge from-layer="1026" from-port="2" to-layer="1027" to-port="1" />
		<edge from-layer="1027" from-port="2" to-layer="1028" to-port="0" />
		<edge from-layer="1028" from-port="1" to-layer="1033" to-port="0" />
		<edge from-layer="1029" from-port="0" to-layer="1033" to-port="1" />
		<edge from-layer="1030" from-port="0" to-layer="1033" to-port="2" />
		<edge from-layer="1031" from-port="0" to-layer="1033" to-port="3" />
		<edge from-layer="1032" from-port="0" to-layer="1033" to-port="4" />
		<edge from-layer="1033" from-port="5" to-layer="1038" to-port="0" />
		<edge from-layer="1034" from-port="0" to-layer="1035" to-port="0" />
		<edge from-layer="1035" from-port="1" to-layer="1037" to-port="0" />
		<edge from-layer="1036" from-port="0" to-layer="1037" to-port="1" />
		<edge from-layer="1037" from-port="2" to-layer="1038" to-port="1" />
		<edge from-layer="1038" from-port="2" to-layer="1039" to-port="0" />
		<edge from-layer="1039" from-port="1" to-layer="1044" to-port="0" />
		<edge from-layer="1040" from-port="0" to-layer="1044" to-port="1" />
		<edge from-layer="1041" from-port="0" to-layer="1044" to-port="2" />
		<edge from-layer="1042" from-port="0" to-layer="1044" to-port="3" />
		<edge from-layer="1043" from-port="0" to-layer="1044" to-port="4" />
		<edge from-layer="1044" from-port="5" to-layer="1083" to-port="0" />
		<edge from-layer="1044" from-port="5" to-layer="1046" to-port="0" />
		<edge from-layer="1045" from-port="0" to-layer="1046" to-port="1" />
		<edge from-layer="1046" from-port="2" to-layer="1051" to-port="0" />
		<edge from-layer="1047" from-port="0" to-layer="1051" to-port="1" />
		<edge from-layer="1048" from-port="0" to-layer="1051" to-port="2" />
		<edge from-layer="1049" from-port="0" to-layer="1051" to-port="3" />
		<edge from-layer="1050" from-port="0" to-layer="1051" to-port="4" />
		<edge from-layer="1051" from-port="5" to-layer="1056" to-port="0" />
		<edge from-layer="1052" from-port="0" to-layer="1053" to-port="0" />
		<edge from-layer="1053" from-port="1" to-layer="1055" to-port="0" />
		<edge from-layer="1054" from-port="0" to-layer="1055" to-port="1" />
		<edge from-layer="1055" from-port="2" to-layer="1056" to-port="1" />
		<edge from-layer="1056" from-port="2" to-layer="1058" to-port="0" />
		<edge from-layer="1057" from-port="0" to-layer="1058" to-port="1" />
		<edge from-layer="1058" from-port="2" to-layer="1059" to-port="0" />
		<edge from-layer="1059" from-port="1" to-layer="1064" to-port="0" />
		<edge from-layer="1060" from-port="0" to-layer="1064" to-port="1" />
		<edge from-layer="1061" from-port="0" to-layer="1064" to-port="2" />
		<edge from-layer="1062" from-port="0" to-layer="1064" to-port="3" />
		<edge from-layer="1063" from-port="0" to-layer="1064" to-port="4" />
		<edge from-layer="1064" from-port="5" to-layer="1069" to-port="0" />
		<edge from-layer="1065" from-port="0" to-layer="1066" to-port="0" />
		<edge from-layer="1066" from-port="1" to-layer="1068" to-port="0" />
		<edge from-layer="1067" from-port="0" to-layer="1068" to-port="1" />
		<edge from-layer="1068" from-port="2" to-layer="1069" to-port="1" />
		<edge from-layer="1069" from-port="2" to-layer="1071" to-port="0" />
		<edge from-layer="1070" from-port="0" to-layer="1071" to-port="1" />
		<edge from-layer="1071" from-port="2" to-layer="1072" to-port="0" />
		<edge from-layer="1072" from-port="1" to-layer="1077" to-port="0" />
		<edge from-layer="1073" from-port="0" to-layer="1077" to-port="1" />
		<edge from-layer="1074" from-port="0" to-layer="1077" to-port="2" />
		<edge from-layer="1075" from-port="0" to-layer="1077" to-port="3" />
		<edge from-layer="1076" from-port="0" to-layer="1077" to-port="4" />
		<edge from-layer="1077" from-port="5" to-layer="1082" to-port="0" />
		<edge from-layer="1078" from-port="0" to-layer="1082" to-port="1" />
		<edge from-layer="1079" from-port="0" to-layer="1082" to-port="2" />
		<edge from-layer="1080" from-port="0" to-layer="1082" to-port="3" />
		<edge from-layer="1081" from-port="0" to-layer="1082" to-port="4" />
		<edge from-layer="1082" from-port="5" to-layer="1083" to-port="1" />
		<edge from-layer="1083" from-port="2" to-layer="1088" to-port="0" />
		<edge from-layer="1084" from-port="0" to-layer="1088" to-port="1" />
		<edge from-layer="1085" from-port="0" to-layer="1088" to-port="2" />
		<edge from-layer="1086" from-port="0" to-layer="1088" to-port="3" />
		<edge from-layer="1087" from-port="0" to-layer="1088" to-port="4" />
		<edge from-layer="1088" from-port="5" to-layer="1093" to-port="0" />
		<edge from-layer="1089" from-port="0" to-layer="1090" to-port="0" />
		<edge from-layer="1090" from-port="1" to-layer="1092" to-port="0" />
		<edge from-layer="1091" from-port="0" to-layer="1092" to-port="1" />
		<edge from-layer="1092" from-port="2" to-layer="1093" to-port="1" />
		<edge from-layer="1093" from-port="2" to-layer="1098" to-port="0" />
		<edge from-layer="1094" from-port="0" to-layer="1098" to-port="1" />
		<edge from-layer="1095" from-port="0" to-layer="1098" to-port="2" />
		<edge from-layer="1096" from-port="0" to-layer="1098" to-port="3" />
		<edge from-layer="1097" from-port="0" to-layer="1098" to-port="4" />
		<edge from-layer="1098" from-port="5" to-layer="1099" to-port="1" />
		<edge from-layer="1099" from-port="2" to-layer="1104" to-port="0" />
		<edge from-layer="1100" from-port="0" to-layer="1104" to-port="1" />
		<edge from-layer="1101" from-port="0" to-layer="1104" to-port="2" />
		<edge from-layer="1102" from-port="0" to-layer="1104" to-port="3" />
		<edge from-layer="1103" from-port="0" to-layer="1104" to-port="4" />
		<edge from-layer="1104" from-port="5" to-layer="1109" to-port="0" />
		<edge from-layer="1104" from-port="5" to-layer="1181" to-port="0" />
		<edge from-layer="1105" from-port="0" to-layer="1106" to-port="0" />
		<edge from-layer="1106" from-port="1" to-layer="1108" to-port="0" />
		<edge from-layer="1107" from-port="0" to-layer="1108" to-port="1" />
		<edge from-layer="1108" from-port="2" to-layer="1109" to-port="1" />
		<edge from-layer="1109" from-port="2" to-layer="1110" to-port="0" />
		<edge from-layer="1110" from-port="1" to-layer="1115" to-port="0" />
		<edge from-layer="1111" from-port="0" to-layer="1115" to-port="1" />
		<edge from-layer="1112" from-port="0" to-layer="1115" to-port="2" />
		<edge from-layer="1113" from-port="0" to-layer="1115" to-port="3" />
		<edge from-layer="1114" from-port="0" to-layer="1115" to-port="4" />
		<edge from-layer="1115" from-port="5" to-layer="1120" to-port="0" />
		<edge from-layer="1116" from-port="0" to-layer="1117" to-port="0" />
		<edge from-layer="1117" from-port="1" to-layer="1119" to-port="0" />
		<edge from-layer="1118" from-port="0" to-layer="1119" to-port="1" />
		<edge from-layer="1119" from-port="2" to-layer="1120" to-port="1" />
		<edge from-layer="1120" from-port="2" to-layer="1121" to-port="0" />
		<edge from-layer="1121" from-port="1" to-layer="1126" to-port="0" />
		<edge from-layer="1122" from-port="0" to-layer="1126" to-port="1" />
		<edge from-layer="1123" from-port="0" to-layer="1126" to-port="2" />
		<edge from-layer="1124" from-port="0" to-layer="1126" to-port="3" />
		<edge from-layer="1125" from-port="0" to-layer="1126" to-port="4" />
		<edge from-layer="1126" from-port="5" to-layer="1128" to-port="0" />
		<edge from-layer="1126" from-port="5" to-layer="1165" to-port="0" />
		<edge from-layer="1127" from-port="0" to-layer="1128" to-port="1" />
		<edge from-layer="1128" from-port="2" to-layer="1133" to-port="0" />
		<edge from-layer="1129" from-port="0" to-layer="1133" to-port="1" />
		<edge from-layer="1130" from-port="0" to-layer="1133" to-port="2" />
		<edge from-layer="1131" from-port="0" to-layer="1133" to-port="3" />
		<edge from-layer="1132" from-port="0" to-layer="1133" to-port="4" />
		<edge from-layer="1133" from-port="5" to-layer="1138" to-port="0" />
		<edge from-layer="1134" from-port="0" to-layer="1135" to-port="0" />
		<edge from-layer="1135" from-port="1" to-layer="1137" to-port="0" />
		<edge from-layer="1136" from-port="0" to-layer="1137" to-port="1" />
		<edge from-layer="1137" from-port="2" to-layer="1138" to-port="1" />
		<edge from-layer="1138" from-port="2" to-layer="1140" to-port="0" />
		<edge from-layer="1139" from-port="0" to-layer="1140" to-port="1" />
		<edge from-layer="1140" from-port="2" to-layer="1141" to-port="0" />
		<edge from-layer="1141" from-port="1" to-layer="1146" to-port="0" />
		<edge from-layer="1142" from-port="0" to-layer="1146" to-port="1" />
		<edge from-layer="1143" from-port="0" to-layer="1146" to-port="2" />
		<edge from-layer="1144" from-port="0" to-layer="1146" to-port="3" />
		<edge from-layer="1145" from-port="0" to-layer="1146" to-port="4" />
		<edge from-layer="1146" from-port="5" to-layer="1151" to-port="0" />
		<edge from-layer="1147" from-port="0" to-layer="1148" to-port="0" />
		<edge from-layer="1148" from-port="1" to-layer="1150" to-port="0" />
		<edge from-layer="1149" from-port="0" to-layer="1150" to-port="1" />
		<edge from-layer="1150" from-port="2" to-layer="1151" to-port="1" />
		<edge from-layer="1151" from-port="2" to-layer="1153" to-port="0" />
		<edge from-layer="1152" from-port="0" to-layer="1153" to-port="1" />
		<edge from-layer="1153" from-port="2" to-layer="1154" to-port="0" />
		<edge from-layer="1154" from-port="1" to-layer="1159" to-port="0" />
		<edge from-layer="1155" from-port="0" to-layer="1159" to-port="1" />
		<edge from-layer="1156" from-port="0" to-layer="1159" to-port="2" />
		<edge from-layer="1157" from-port="0" to-layer="1159" to-port="3" />
		<edge from-layer="1158" from-port="0" to-layer="1159" to-port="4" />
		<edge from-layer="1159" from-port="5" to-layer="1164" to-port="0" />
		<edge from-layer="1160" from-port="0" to-layer="1164" to-port="1" />
		<edge from-layer="1161" from-port="0" to-layer="1164" to-port="2" />
		<edge from-layer="1162" from-port="0" to-layer="1164" to-port="3" />
		<edge from-layer="1163" from-port="0" to-layer="1164" to-port="4" />
		<edge from-layer="1164" from-port="5" to-layer="1165" to-port="1" />
		<edge from-layer="1165" from-port="2" to-layer="1170" to-port="0" />
		<edge from-layer="1166" from-port="0" to-layer="1170" to-port="1" />
		<edge from-layer="1167" from-port="0" to-layer="1170" to-port="2" />
		<edge from-layer="1168" from-port="0" to-layer="1170" to-port="3" />
		<edge from-layer="1169" from-port="0" to-layer="1170" to-port="4" />
		<edge from-layer="1170" from-port="5" to-layer="1175" to-port="0" />
		<edge from-layer="1171" from-port="0" to-layer="1172" to-port="0" />
		<edge from-layer="1172" from-port="1" to-layer="1174" to-port="0" />
		<edge from-layer="1173" from-port="0" to-layer="1174" to-port="1" />
		<edge from-layer="1174" from-port="2" to-layer="1175" to-port="1" />
		<edge from-layer="1175" from-port="2" to-layer="1180" to-port="0" />
		<edge from-layer="1176" from-port="0" to-layer="1180" to-port="1" />
		<edge from-layer="1177" from-port="0" to-layer="1180" to-port="2" />
		<edge from-layer="1178" from-port="0" to-layer="1180" to-port="3" />
		<edge from-layer="1179" from-port="0" to-layer="1180" to-port="4" />
		<edge from-layer="1180" from-port="5" to-layer="1181" to-port="1" />
		<edge from-layer="1181" from-port="2" to-layer="1186" to-port="0" />
		<edge from-layer="1182" from-port="0" to-layer="1186" to-port="1" />
		<edge from-layer="1183" from-port="0" to-layer="1186" to-port="2" />
		<edge from-layer="1184" from-port="0" to-layer="1186" to-port="3" />
		<edge from-layer="1185" from-port="0" to-layer="1186" to-port="4" />
		<edge from-layer="1186" from-port="5" to-layer="1191" to-port="0" />
		<edge from-layer="1186" from-port="5" to-layer="1263" to-port="0" />
		<edge from-layer="1187" from-port="0" to-layer="1188" to-port="0" />
		<edge from-layer="1188" from-port="1" to-layer="1190" to-port="0" />
		<edge from-layer="1189" from-port="0" to-layer="1190" to-port="1" />
		<edge from-layer="1190" from-port="2" to-layer="1191" to-port="1" />
		<edge from-layer="1191" from-port="2" to-layer="1192" to-port="0" />
		<edge from-layer="1192" from-port="1" to-layer="1197" to-port="0" />
		<edge from-layer="1193" from-port="0" to-layer="1197" to-port="1" />
		<edge from-layer="1194" from-port="0" to-layer="1197" to-port="2" />
		<edge from-layer="1195" from-port="0" to-layer="1197" to-port="3" />
		<edge from-layer="1196" from-port="0" to-layer="1197" to-port="4" />
		<edge from-layer="1197" from-port="5" to-layer="1202" to-port="0" />
		<edge from-layer="1198" from-port="0" to-layer="1199" to-port="0" />
		<edge from-layer="1199" from-port="1" to-layer="1201" to-port="0" />
		<edge from-layer="1200" from-port="0" to-layer="1201" to-port="1" />
		<edge from-layer="1201" from-port="2" to-layer="1202" to-port="1" />
		<edge from-layer="1202" from-port="2" to-layer="1203" to-port="0" />
		<edge from-layer="1203" from-port="1" to-layer="1208" to-port="0" />
		<edge from-layer="1204" from-port="0" to-layer="1208" to-port="1" />
		<edge from-layer="1205" from-port="0" to-layer="1208" to-port="2" />
		<edge from-layer="1206" from-port="0" to-layer="1208" to-port="3" />
		<edge from-layer="1207" from-port="0" to-layer="1208" to-port="4" />
		<edge from-layer="1208" from-port="5" to-layer="1247" to-port="0" />
		<edge from-layer="1208" from-port="5" to-layer="1210" to-port="0" />
		<edge from-layer="1209" from-port="0" to-layer="1210" to-port="1" />
		<edge from-layer="1210" from-port="2" to-layer="1215" to-port="0" />
		<edge from-layer="1211" from-port="0" to-layer="1215" to-port="1" />
		<edge from-layer="1212" from-port="0" to-layer="1215" to-port="2" />
		<edge from-layer="1213" from-port="0" to-layer="1215" to-port="3" />
		<edge from-layer="1214" from-port="0" to-layer="1215" to-port="4" />
		<edge from-layer="1215" from-port="5" to-layer="1220" to-port="0" />
		<edge from-layer="1216" from-port="0" to-layer="1217" to-port="0" />
		<edge from-layer="1217" from-port="1" to-layer="1219" to-port="0" />
		<edge from-layer="1218" from-port="0" to-layer="1219" to-port="1" />
		<edge from-layer="1219" from-port="2" to-layer="1220" to-port="1" />
		<edge from-layer="1220" from-port="2" to-layer="1222" to-port="0" />
		<edge from-layer="1221" from-port="0" to-layer="1222" to-port="1" />
		<edge from-layer="1222" from-port="2" to-layer="1223" to-port="0" />
		<edge from-layer="1223" from-port="1" to-layer="1228" to-port="0" />
		<edge from-layer="1224" from-port="0" to-layer="1228" to-port="1" />
		<edge from-layer="1225" from-port="0" to-layer="1228" to-port="2" />
		<edge from-layer="1226" from-port="0" to-layer="1228" to-port="3" />
		<edge from-layer="1227" from-port="0" to-layer="1228" to-port="4" />
		<edge from-layer="1228" from-port="5" to-layer="1233" to-port="0" />
		<edge from-layer="1229" from-port="0" to-layer="1230" to-port="0" />
		<edge from-layer="1230" from-port="1" to-layer="1232" to-port="0" />
		<edge from-layer="1231" from-port="0" to-layer="1232" to-port="1" />
		<edge from-layer="1232" from-port="2" to-layer="1233" to-port="1" />
		<edge from-layer="1233" from-port="2" to-layer="1235" to-port="0" />
		<edge from-layer="1234" from-port="0" to-layer="1235" to-port="1" />
		<edge from-layer="1235" from-port="2" to-layer="1236" to-port="0" />
		<edge from-layer="1236" from-port="1" to-layer="1241" to-port="0" />
		<edge from-layer="1237" from-port="0" to-layer="1241" to-port="1" />
		<edge from-layer="1238" from-port="0" to-layer="1241" to-port="2" />
		<edge from-layer="1239" from-port="0" to-layer="1241" to-port="3" />
		<edge from-layer="1240" from-port="0" to-layer="1241" to-port="4" />
		<edge from-layer="1241" from-port="5" to-layer="1246" to-port="0" />
		<edge from-layer="1242" from-port="0" to-layer="1246" to-port="1" />
		<edge from-layer="1243" from-port="0" to-layer="1246" to-port="2" />
		<edge from-layer="1244" from-port="0" to-layer="1246" to-port="3" />
		<edge from-layer="1245" from-port="0" to-layer="1246" to-port="4" />
		<edge from-layer="1246" from-port="5" to-layer="1247" to-port="1" />
		<edge from-layer="1247" from-port="2" to-layer="1252" to-port="0" />
		<edge from-layer="1248" from-port="0" to-layer="1252" to-port="1" />
		<edge from-layer="1249" from-port="0" to-layer="1252" to-port="2" />
		<edge from-layer="1250" from-port="0" to-layer="1252" to-port="3" />
		<edge from-layer="1251" from-port="0" to-layer="1252" to-port="4" />
		<edge from-layer="1252" from-port="5" to-layer="1257" to-port="0" />
		<edge from-layer="1253" from-port="0" to-layer="1254" to-port="0" />
		<edge from-layer="1254" from-port="1" to-layer="1256" to-port="0" />
		<edge from-layer="1255" from-port="0" to-layer="1256" to-port="1" />
		<edge from-layer="1256" from-port="2" to-layer="1257" to-port="1" />
		<edge from-layer="1257" from-port="2" to-layer="1262" to-port="0" />
		<edge from-layer="1258" from-port="0" to-layer="1262" to-port="1" />
		<edge from-layer="1259" from-port="0" to-layer="1262" to-port="2" />
		<edge from-layer="1260" from-port="0" to-layer="1262" to-port="3" />
		<edge from-layer="1261" from-port="0" to-layer="1262" to-port="4" />
		<edge from-layer="1262" from-port="5" to-layer="1263" to-port="1" />
		<edge from-layer="1263" from-port="2" to-layer="1268" to-port="0" />
		<edge from-layer="1264" from-port="0" to-layer="1268" to-port="1" />
		<edge from-layer="1265" from-port="0" to-layer="1268" to-port="2" />
		<edge from-layer="1266" from-port="0" to-layer="1268" to-port="3" />
		<edge from-layer="1267" from-port="0" to-layer="1268" to-port="4" />
		<edge from-layer="1268" from-port="5" to-layer="1273" to-port="0" />
		<edge from-layer="1269" from-port="0" to-layer="1270" to-port="0" />
		<edge from-layer="1270" from-port="1" to-layer="1272" to-port="0" />
		<edge from-layer="1271" from-port="0" to-layer="1272" to-port="1" />
		<edge from-layer="1272" from-port="2" to-layer="1273" to-port="1" />
		<edge from-layer="1273" from-port="2" to-layer="1274" to-port="0" />
		<edge from-layer="1274" from-port="1" to-layer="1279" to-port="0" />
		<edge from-layer="1275" from-port="0" to-layer="1279" to-port="1" />
		<edge from-layer="1276" from-port="0" to-layer="1279" to-port="2" />
		<edge from-layer="1277" from-port="0" to-layer="1279" to-port="3" />
		<edge from-layer="1278" from-port="0" to-layer="1279" to-port="4" />
		<edge from-layer="1279" from-port="5" to-layer="1284" to-port="0" />
		<edge from-layer="1280" from-port="0" to-layer="1281" to-port="0" />
		<edge from-layer="1281" from-port="1" to-layer="1283" to-port="0" />
		<edge from-layer="1282" from-port="0" to-layer="1283" to-port="1" />
		<edge from-layer="1283" from-port="2" to-layer="1284" to-port="1" />
		<edge from-layer="1284" from-port="2" to-layer="1285" to-port="0" />
		<edge from-layer="1285" from-port="1" to-layer="1290" to-port="0" />
		<edge from-layer="1286" from-port="0" to-layer="1290" to-port="1" />
		<edge from-layer="1287" from-port="0" to-layer="1290" to-port="2" />
		<edge from-layer="1288" from-port="0" to-layer="1290" to-port="3" />
		<edge from-layer="1289" from-port="0" to-layer="1290" to-port="4" />
		<edge from-layer="1290" from-port="5" to-layer="1292" to-port="0" />
		<edge from-layer="1290" from-port="5" to-layer="1329" to-port="0" />
		<edge from-layer="1291" from-port="0" to-layer="1292" to-port="1" />
		<edge from-layer="1292" from-port="2" to-layer="1297" to-port="0" />
		<edge from-layer="1293" from-port="0" to-layer="1297" to-port="1" />
		<edge from-layer="1294" from-port="0" to-layer="1297" to-port="2" />
		<edge from-layer="1295" from-port="0" to-layer="1297" to-port="3" />
		<edge from-layer="1296" from-port="0" to-layer="1297" to-port="4" />
		<edge from-layer="1297" from-port="5" to-layer="1302" to-port="0" />
		<edge from-layer="1298" from-port="0" to-layer="1299" to-port="0" />
		<edge from-layer="1299" from-port="1" to-layer="1301" to-port="0" />
		<edge from-layer="1300" from-port="0" to-layer="1301" to-port="1" />
		<edge from-layer="1301" from-port="2" to-layer="1302" to-port="1" />
		<edge from-layer="1302" from-port="2" to-layer="1304" to-port="0" />
		<edge from-layer="1303" from-port="0" to-layer="1304" to-port="1" />
		<edge from-layer="1304" from-port="2" to-layer="1305" to-port="0" />
		<edge from-layer="1305" from-port="1" to-layer="1310" to-port="0" />
		<edge from-layer="1306" from-port="0" to-layer="1310" to-port="1" />
		<edge from-layer="1307" from-port="0" to-layer="1310" to-port="2" />
		<edge from-layer="1308" from-port="0" to-layer="1310" to-port="3" />
		<edge from-layer="1309" from-port="0" to-layer="1310" to-port="4" />
		<edge from-layer="1310" from-port="5" to-layer="1315" to-port="0" />
		<edge from-layer="1311" from-port="0" to-layer="1312" to-port="0" />
		<edge from-layer="1312" from-port="1" to-layer="1314" to-port="0" />
		<edge from-layer="1313" from-port="0" to-layer="1314" to-port="1" />
		<edge from-layer="1314" from-port="2" to-layer="1315" to-port="1" />
		<edge from-layer="1315" from-port="2" to-layer="1317" to-port="0" />
		<edge from-layer="1316" from-port="0" to-layer="1317" to-port="1" />
		<edge from-layer="1317" from-port="2" to-layer="1318" to-port="0" />
		<edge from-layer="1318" from-port="1" to-layer="1323" to-port="0" />
		<edge from-layer="1319" from-port="0" to-layer="1323" to-port="1" />
		<edge from-layer="1320" from-port="0" to-layer="1323" to-port="2" />
		<edge from-layer="1321" from-port="0" to-layer="1323" to-port="3" />
		<edge from-layer="1322" from-port="0" to-layer="1323" to-port="4" />
		<edge from-layer="1323" from-port="5" to-layer="1328" to-port="0" />
		<edge from-layer="1324" from-port="0" to-layer="1328" to-port="1" />
		<edge from-layer="1325" from-port="0" to-layer="1328" to-port="2" />
		<edge from-layer="1326" from-port="0" to-layer="1328" to-port="3" />
		<edge from-layer="1327" from-port="0" to-layer="1328" to-port="4" />
		<edge from-layer="1328" from-port="5" to-layer="1329" to-port="1" />
		<edge from-layer="1329" from-port="2" to-layer="1334" to-port="0" />
		<edge from-layer="1330" from-port="0" to-layer="1334" to-port="1" />
		<edge from-layer="1331" from-port="0" to-layer="1334" to-port="2" />
		<edge from-layer="1332" from-port="0" to-layer="1334" to-port="3" />
		<edge from-layer="1333" from-port="0" to-layer="1334" to-port="4" />
		<edge from-layer="1334" from-port="5" to-layer="1339" to-port="0" />
		<edge from-layer="1335" from-port="0" to-layer="1336" to-port="0" />
		<edge from-layer="1336" from-port="1" to-layer="1338" to-port="0" />
		<edge from-layer="1337" from-port="0" to-layer="1338" to-port="1" />
		<edge from-layer="1338" from-port="2" to-layer="1339" to-port="1" />
		<edge from-layer="1339" from-port="2" to-layer="1344" to-port="0" />
		<edge from-layer="1340" from-port="0" to-layer="1344" to-port="1" />
		<edge from-layer="1341" from-port="0" to-layer="1344" to-port="2" />
		<edge from-layer="1342" from-port="0" to-layer="1344" to-port="3" />
		<edge from-layer="1343" from-port="0" to-layer="1344" to-port="4" />
		<edge from-layer="1344" from-port="5" to-layer="1349" to-port="0" />
		<edge from-layer="1345" from-port="0" to-layer="1346" to-port="0" />
		<edge from-layer="1346" from-port="1" to-layer="1348" to-port="0" />
		<edge from-layer="1347" from-port="0" to-layer="1348" to-port="1" />
		<edge from-layer="1348" from-port="2" to-layer="1349" to-port="1" />
		<edge from-layer="1349" from-port="2" to-layer="1350" to-port="0" />
		<edge from-layer="1350" from-port="1" to-layer="1355" to-port="0" />
		<edge from-layer="1351" from-port="0" to-layer="1355" to-port="1" />
		<edge from-layer="1352" from-port="0" to-layer="1355" to-port="2" />
		<edge from-layer="1353" from-port="0" to-layer="1355" to-port="3" />
		<edge from-layer="1354" from-port="0" to-layer="1355" to-port="4" />
		<edge from-layer="1355" from-port="5" to-layer="1357" to-port="0" />
		<edge from-layer="1356" from-port="0" to-layer="1357" to-port="1" />
		<edge from-layer="1357" from-port="2" to-layer="1362" to-port="0" />
		<edge from-layer="1358" from-port="0" to-layer="1362" to-port="1" />
		<edge from-layer="1359" from-port="0" to-layer="1362" to-port="2" />
		<edge from-layer="1360" from-port="0" to-layer="1362" to-port="3" />
		<edge from-layer="1361" from-port="0" to-layer="1362" to-port="4" />
		<edge from-layer="1362" from-port="5" to-layer="1364" to-port="0" />
		<edge from-layer="1363" from-port="0" to-layer="1364" to-port="1" />
		<edge from-layer="1364" from-port="2" to-layer="1365" to-port="0" />
		<edge from-layer="1365" from-port="2" to-layer="1370" to-port="0" />
		<edge from-layer="1366" from-port="0" to-layer="1367" to-port="0" />
		<edge from-layer="1367" from-port="1" to-layer="1369" to-port="0" />
		<edge from-layer="1368" from-port="0" to-layer="1369" to-port="1" />
		<edge from-layer="1369" from-port="2" to-layer="1370" to-port="1" />
		<edge from-layer="1370" from-port="2" to-layer="1372" to-port="0" />
		<edge from-layer="1371" from-port="0" to-layer="1372" to-port="1" />
		<edge from-layer="1372" from-port="2" to-layer="1373" to-port="0" />
		<edge from-layer="1373" from-port="1" to-layer="1378" to-port="0" />
		<edge from-layer="1374" from-port="0" to-layer="1378" to-port="1" />
		<edge from-layer="1375" from-port="0" to-layer="1378" to-port="2" />
		<edge from-layer="1376" from-port="0" to-layer="1378" to-port="3" />
		<edge from-layer="1377" from-port="0" to-layer="1378" to-port="4" />
		<edge from-layer="1378" from-port="5" to-layer="1383" to-port="0" />
		<edge from-layer="1379" from-port="0" to-layer="1380" to-port="0" />
		<edge from-layer="1380" from-port="1" to-layer="1382" to-port="0" />
		<edge from-layer="1381" from-port="0" to-layer="1382" to-port="1" />
		<edge from-layer="1382" from-port="2" to-layer="1383" to-port="1" />
		<edge from-layer="1383" from-port="2" to-layer="1385" to-port="0" />
		<edge from-layer="1384" from-port="0" to-layer="1385" to-port="1" />
		<edge from-layer="1385" from-port="2" to-layer="1386" to-port="0" />
	</edges>
	<rt_info>
		<Runtime_version value="2026.0.0-20965-c6d6a13a886-releases/2026/0" />
		<conversion_parameters>
			<input_model value="DIR\sffn_fp32_clean.onnx" />
			<is_python_object value="False" />
		</conversion_parameters>
		<nncf>
			<friendly_names_were_updated value="True" />
			<quantization>
				<advanced_parameters value="{}" />
				<fast_bias_correction value="True" />
				<ignored_scope value="None" />
				<model_type value="None" />
				<preset value="performance" />
				<subset_size value="300" />
				<target_device value="ANY" />
			</quantization>
			<version value="3.0.0" />
		</nncf>
	</rt_info>
</net>
